{"format": "graph-model", "generatedBy": "2.7.0", "convertedBy": "TensorFlow.js Converter v3.11.0", "signature": {"inputs": {"input_1": {"name": "input_1:0", "dtype": "DT_FLOAT", "tensorShape": {"dim": [{"size": "-1"}, {"size": "-1"}]}}}, "outputs": {"output_1": {"name": "Identity:0", "dtype": "DT_FLOAT", "tensorShape": {"dim": [{"size": "-1"}, {"size": "-1"}, {"size": "93"}]}}}}, "modelTopology": {"node": [{"name": "StatefulPartitionedCall/lstm_model/dense/Tensordot/Const", "op": "Const", "attr": {"dtype": {"type": "DT_INT32"}, "value": {"tensor": {"dtype": "DT_INT32", "tensorShape": {"dim": [{"size": "1"}]}}}}}, {"name": "StatefulPartitionedCall/lstm_model/dense/Tensordot/axes", "op": "Const", "attr": {"dtype": {"type": "DT_INT32"}, "value": {"tensor": {"dtype": "DT_INT32", "tensorShape": {"dim": [{"size": "1"}]}}}}}, {"name": "StatefulPartitionedCall/lstm_model/dense/Tensordot/GatherV2_1/axis", "op": "Const", "attr": {"value": {"tensor": {"dtype": "DT_INT32", "tensorShape": {}}}, "dtype": {"type": "DT_INT32"}}}, {"name": "StatefulPartitionedCall/lstm_model/dense/Tensordot/Const_1", "op": "Const", "attr": {"dtype": {"type": "DT_INT32"}, "value": {"tensor": {"dtype": "DT_INT32", "tensorShape": {"dim": [{"size": "1"}]}}}}}, {"name": "StatefulPartitionedCall/lstm_model/dense/Tensordot/ReadVariableOp", "op": "Const", "attr": {"value": {"tensor": {"dtype": "DT_FLOAT", "tensorShape": {"dim": [{"size": "128"}, {"size": "93"}]}}}, "dtype": {"type": "DT_FLOAT"}}}, {"name": "StatefulPartitionedCall/lstm_model/lstm_2/PartitionedCall/TensorArrayV2_1/element_shape", "op": "Const", "attr": {"dtype": {"type": "DT_INT32"}, "value": {"tensor": {"dtype": "DT_INT32", "tensorShape": {"dim": [{"size": "2"}]}}}}}, {"name": "StatefulPartitionedCall/lstm_model/lstm_2/PartitionedCall/TensorArrayUnstack/TensorListFromTensor/element_shape", "op": "Const", "attr": {"dtype": {"type": "DT_INT32"}, "value": {"tensor": {"dtype": "DT_INT32", "tensorShape": {"dim": [{"size": "2"}]}}}}}, {"name": "StatefulPartitionedCall/lstm_model/lstm_2/PartitionedCall/ExpandDims/dim", "op": "Const", "attr": {"value": {"tensor": {"dtype": "DT_INT32", "tensorShape": {}}}, "dtype": {"type": "DT_INT32"}}}, {"name": "StatefulPartitionedCall/lstm_model/lstm_2/PartitionedCall/transpose_1/perm", "op": "Const", "attr": {"value": {"tensor": {"dtype": "DT_INT32", "tensorShape": {"dim": [{"size": "3"}]}}}, "dtype": {"type": "DT_INT32"}}}, {"name": "StatefulPartitionedCall/lstm_model/lstm_2/PartitionedCall/TensorArrayUnstack_1/TensorListFromTensor/element_shape", "op": "Const", "attr": {"value": {"tensor": {"dtype": "DT_INT32", "tensorShape": {"dim": [{"size": "2"}]}}}, "dtype": {"type": "DT_INT32"}}}, {"name": "StatefulPartitionedCall/lstm_model/lstm_2/zeros_1/packed/1", "op": "Const", "attr": {"dtype": {"type": "DT_INT32"}, "value": {"tensor": {"dtype": "DT_INT32", "tensorShape": {}}}}}, {"name": "StatefulPartitionedCall/lstm_model/lstm_2/zeros_1/Const", "op": "Const", "attr": {"value": {"tensor": {"dtype": "DT_FLOAT", "tensorShape": {}}}, "dtype": {"type": "DT_FLOAT"}}}, {"name": "StatefulPartitionedCall/lstm_model/lstm_2/PartitionedCall/split/split_dim", "op": "Const", "attr": {"dtype": {"type": "DT_INT32"}, "value": {"tensor": {"dtype": "DT_INT32", "tensorShape": {}}}}}, {"name": "StatefulPartitionedCall/lstm_model/lstm_2/PartitionedCall/strided_slice_1/stack", "op": "Const", "attr": {"dtype": {"type": "DT_INT32"}, "value": {"tensor": {"dtype": "DT_INT32", "tensorShape": {"dim": [{"size": "1"}]}}}}}, {"name": "StatefulPartitionedCall/lstm_model/lstm_2/PartitionedCall/strided_slice_1/stack_1", "op": "Const", "attr": {"dtype": {"type": "DT_INT32"}, "value": {"tensor": {"dtype": "DT_INT32", "tensorShape": {"dim": [{"size": "1"}]}}}}}, {"name": "StatefulPartitionedCall/lstm_model/lstm_2/PartitionedCall/strided_slice_1/stack_2", "op": "Const", "attr": {"value": {"tensor": {"dtype": "DT_INT32", "tensorShape": {"dim": [{"size": "1"}]}}}, "dtype": {"type": "DT_INT32"}}}, {"name": "StatefulPartitionedCall/lstm_model/lstm_2/Read/ReadVariableOp", "op": "Const", "attr": {"dtype": {"type": "DT_FLOAT"}, "value": {"tensor": {"dtype": "DT_FLOAT", "tensorShape": {"dim": [{"size": "128"}, {"size": "512"}]}}}}}, {"name": "StatefulPartitionedCall/lstm_model/lstm_2/strided_slice/stack", "op": "Const", "attr": {"value": {"tensor": {"dtype": "DT_INT32", "tensorShape": {"dim": [{"size": "1"}]}}}, "dtype": {"type": "DT_INT32"}}}, {"name": "StatefulPartitionedCall/lstm_model/lstm_2/strided_slice/stack_1", "op": "Const", "attr": {"value": {"tensor": {"dtype": "DT_INT32", "tensorShape": {"dim": [{"size": "1"}]}}}, "dtype": {"type": "DT_INT32"}}}, {"name": "StatefulPartitionedCall/lstm_model/lstm_2/strided_slice/stack_2", "op": "Const", "attr": {"dtype": {"type": "DT_INT32"}, "value": {"tensor": {"dtype": "DT_INT32", "tensorShape": {"dim": [{"size": "1"}]}}}}}, {"name": "StatefulPartitionedCall/lstm_model/lstm_2/zeros/packed/1", "op": "Const", "attr": {"value": {"tensor": {"dtype": "DT_INT32", "tensorShape": {}}}, "dtype": {"type": "DT_INT32"}}}, {"name": "StatefulPartitionedCall/lstm_model/lstm_2/zeros/Const", "op": "Const", "attr": {"value": {"tensor": {"dtype": "DT_FLOAT", "tensorShape": {}}}, "dtype": {"type": "DT_FLOAT"}}}, {"name": "StatefulPartitionedCall/lstm_model/lstm_2/Read_1/ReadVariableOp", "op": "Const", "attr": {"value": {"tensor": {"dtype": "DT_FLOAT", "tensorShape": {"dim": [{"size": "128"}, {"size": "512"}]}}}, "dtype": {"type": "DT_FLOAT"}}}, {"name": "StatefulPartitionedCall/lstm_model/lstm_2/Read_2/ReadVariableOp", "op": "Const", "attr": {"value": {"tensor": {"dtype": "DT_FLOAT", "tensorShape": {"dim": [{"size": "512"}]}}}, "dtype": {"type": "DT_FLOAT"}}}, {"name": "StatefulPartitionedCall/lstm_model/lstm_2/PartitionedCall/time", "op": "Const", "attr": {"value": {"tensor": {"dtype": "DT_INT32", "tensorShape": {}}}, "dtype": {"type": "DT_INT32"}}}, {"name": "StatefulPartitionedCall/lstm_model/lstm_1/PartitionedCall/TensorArrayV2_1/element_shape", "op": "Const", "attr": {"dtype": {"type": "DT_INT32"}, "value": {"tensor": {"dtype": "DT_INT32", "tensorShape": {"dim": [{"size": "2"}]}}}}}, {"name": "StatefulPartitionedCall/lstm_model/lstm_1/PartitionedCall/TensorArrayUnstack/TensorListFromTensor/element_shape", "op": "Const", "attr": {"value": {"tensor": {"dtype": "DT_INT32", "tensorShape": {"dim": [{"size": "2"}]}}}, "dtype": {"type": "DT_INT32"}}}, {"name": "StatefulPartitionedCall/lstm_model/lstm_1/PartitionedCall/ExpandDims/dim", "op": "Const", "attr": {"value": {"tensor": {"dtype": "DT_INT32", "tensorShape": {}}}, "dtype": {"type": "DT_INT32"}}}, {"name": "StatefulPartitionedCall/lstm_model/lstm_1/PartitionedCall/transpose_1/perm", "op": "Const", "attr": {"dtype": {"type": "DT_INT32"}, "value": {"tensor": {"dtype": "DT_INT32", "tensorShape": {"dim": [{"size": "3"}]}}}}}, {"name": "StatefulPartitionedCall/lstm_model/lstm_1/PartitionedCall/TensorArrayUnstack_1/TensorListFromTensor/element_shape", "op": "Const", "attr": {"dtype": {"type": "DT_INT32"}, "value": {"tensor": {"dtype": "DT_INT32", "tensorShape": {"dim": [{"size": "2"}]}}}}}, {"name": "StatefulPartitionedCall/lstm_model/lstm_1/zeros_1/packed/1", "op": "Const", "attr": {"value": {"tensor": {"dtype": "DT_INT32", "tensorShape": {}}}, "dtype": {"type": "DT_INT32"}}}, {"name": "StatefulPartitionedCall/lstm_model/lstm_1/zeros_1/Const", "op": "Const", "attr": {"dtype": {"type": "DT_FLOAT"}, "value": {"tensor": {"dtype": "DT_FLOAT", "tensorShape": {}}}}}, {"name": "StatefulPartitionedCall/lstm_model/lstm_1/PartitionedCall/split/split_dim", "op": "Const", "attr": {"dtype": {"type": "DT_INT32"}, "value": {"tensor": {"dtype": "DT_INT32", "tensorShape": {}}}}}, {"name": "StatefulPartitionedCall/lstm_model/lstm_1/PartitionedCall/strided_slice_1/stack", "op": "Const", "attr": {"value": {"tensor": {"dtype": "DT_INT32", "tensorShape": {"dim": [{"size": "1"}]}}}, "dtype": {"type": "DT_INT32"}}}, {"name": "StatefulPartitionedCall/lstm_model/lstm_1/PartitionedCall/strided_slice_1/stack_1", "op": "Const", "attr": {"dtype": {"type": "DT_INT32"}, "value": {"tensor": {"dtype": "DT_INT32", "tensorShape": {"dim": [{"size": "1"}]}}}}}, {"name": "StatefulPartitionedCall/lstm_model/lstm_1/PartitionedCall/strided_slice_1/stack_2", "op": "Const", "attr": {"dtype": {"type": "DT_INT32"}, "value": {"tensor": {"dtype": "DT_INT32", "tensorShape": {"dim": [{"size": "1"}]}}}}}, {"name": "StatefulPartitionedCall/lstm_model/lstm_1/Read/ReadVariableOp", "op": "Const", "attr": {"value": {"tensor": {"dtype": "DT_FLOAT", "tensorShape": {"dim": [{"size": "128"}, {"size": "512"}]}}}, "dtype": {"type": "DT_FLOAT"}}}, {"name": "StatefulPartitionedCall/lstm_model/lstm_1/strided_slice/stack", "op": "Const", "attr": {"value": {"tensor": {"dtype": "DT_INT32", "tensorShape": {"dim": [{"size": "1"}]}}}, "dtype": {"type": "DT_INT32"}}}, {"name": "StatefulPartitionedCall/lstm_model/lstm_1/strided_slice/stack_1", "op": "Const", "attr": {"dtype": {"type": "DT_INT32"}, "value": {"tensor": {"dtype": "DT_INT32", "tensorShape": {"dim": [{"size": "1"}]}}}}}, {"name": "StatefulPartitionedCall/lstm_model/lstm_1/strided_slice/stack_2", "op": "Const", "attr": {"value": {"tensor": {"dtype": "DT_INT32", "tensorShape": {"dim": [{"size": "1"}]}}}, "dtype": {"type": "DT_INT32"}}}, {"name": "StatefulPartitionedCall/lstm_model/lstm_1/zeros/packed/1", "op": "Const", "attr": {"dtype": {"type": "DT_INT32"}, "value": {"tensor": {"dtype": "DT_INT32", "tensorShape": {}}}}}, {"name": "StatefulPartitionedCall/lstm_model/lstm_1/zeros/Const", "op": "Const", "attr": {"dtype": {"type": "DT_FLOAT"}, "value": {"tensor": {"dtype": "DT_FLOAT", "tensorShape": {}}}}}, {"name": "StatefulPartitionedCall/lstm_model/lstm_1/Read_1/ReadVariableOp", "op": "Const", "attr": {"dtype": {"type": "DT_FLOAT"}, "value": {"tensor": {"dtype": "DT_FLOAT", "tensorShape": {"dim": [{"size": "128"}, {"size": "512"}]}}}}}, {"name": "StatefulPartitionedCall/lstm_model/lstm_1/Read_2/ReadVariableOp", "op": "Const", "attr": {"dtype": {"type": "DT_FLOAT"}, "value": {"tensor": {"dtype": "DT_FLOAT", "tensorShape": {"dim": [{"size": "512"}]}}}}}, {"name": "StatefulPartitionedCall/lstm_model/lstm_1/PartitionedCall/time", "op": "Const", "attr": {"value": {"tensor": {"dtype": "DT_INT32", "tensorShape": {}}}, "dtype": {"type": "DT_INT32"}}}, {"name": "StatefulPartitionedCall/lstm_model/lstm/PartitionedCall/TensorArrayV2_1/element_shape", "op": "Const", "attr": {"value": {"tensor": {"dtype": "DT_INT32", "tensorShape": {"dim": [{"size": "2"}]}}}, "dtype": {"type": "DT_INT32"}}}, {"name": "StatefulPartitionedCall/lstm_model/lstm/PartitionedCall/TensorArrayUnstack/TensorListFromTensor/element_shape", "op": "Const", "attr": {"dtype": {"type": "DT_INT32"}, "value": {"tensor": {"dtype": "DT_INT32", "tensorShape": {"dim": [{"size": "2"}]}}}}}, {"name": "StatefulPartitionedCall/lstm_model/embedding/NotEqual/y", "op": "Const", "attr": {"value": {"tensor": {"dtype": "DT_FLOAT", "tensorShape": {}}}, "dtype": {"type": "DT_FLOAT"}}}, {"name": "StatefulPartitionedCall/lstm_model/lstm/PartitionedCall/ExpandDims/dim", "op": "Const", "attr": {"value": {"tensor": {"dtype": "DT_INT32", "tensorShape": {}}}, "dtype": {"type": "DT_INT32"}}}, {"name": "StatefulPartitionedCall/lstm_model/lstm/PartitionedCall/transpose_1/perm", "op": "Const", "attr": {"value": {"tensor": {"dtype": "DT_INT32", "tensorShape": {"dim": [{"size": "3"}]}}}, "dtype": {"type": "DT_INT32"}}}, {"name": "StatefulPartitionedCall/lstm_model/lstm/PartitionedCall/TensorArrayUnstack_1/TensorListFromTensor/element_shape", "op": "Const", "attr": {"dtype": {"type": "DT_INT32"}, "value": {"tensor": {"dtype": "DT_INT32", "tensorShape": {"dim": [{"size": "2"}]}}}}}, {"name": "StatefulPartitionedCall/lstm_model/lstm/zeros_1/packed/1", "op": "Const", "attr": {"dtype": {"type": "DT_INT32"}, "value": {"tensor": {"dtype": "DT_INT32", "tensorShape": {}}}}}, {"name": "StatefulPartitionedCall/lstm_model/lstm/zeros_1/Const", "op": "Const", "attr": {"dtype": {"type": "DT_FLOAT"}, "value": {"tensor": {"dtype": "DT_FLOAT", "tensorShape": {}}}}}, {"name": "StatefulPartitionedCall/lstm_model/lstm/PartitionedCall/split/split_dim", "op": "Const", "attr": {"value": {"tensor": {"dtype": "DT_INT32", "tensorShape": {}}}, "dtype": {"type": "DT_INT32"}}}, {"name": "StatefulPartitionedCall/lstm_model/lstm/PartitionedCall/strided_slice_1/stack", "op": "Const", "attr": {"value": {"tensor": {"dtype": "DT_INT32", "tensorShape": {"dim": [{"size": "1"}]}}}, "dtype": {"type": "DT_INT32"}}}, {"name": "StatefulPartitionedCall/lstm_model/lstm/PartitionedCall/strided_slice_1/stack_1", "op": "Const", "attr": {"dtype": {"type": "DT_INT32"}, "value": {"tensor": {"dtype": "DT_INT32", "tensorShape": {"dim": [{"size": "1"}]}}}}}, {"name": "StatefulPartitionedCall/lstm_model/lstm/PartitionedCall/strided_slice_1/stack_2", "op": "Const", "attr": {"dtype": {"type": "DT_INT32"}, "value": {"tensor": {"dtype": "DT_INT32", "tensorShape": {"dim": [{"size": "1"}]}}}}}, {"name": "StatefulPartitionedCall/lstm_model/lstm/Read/ReadVariableOp", "op": "Const", "attr": {"value": {"tensor": {"dtype": "DT_FLOAT", "tensorShape": {"dim": [{"size": "128"}, {"size": "512"}]}}}, "dtype": {"type": "DT_FLOAT"}}}, {"name": "StatefulPartitionedCall/lstm_model/lstm/strided_slice/stack", "op": "Const", "attr": {"value": {"tensor": {"dtype": "DT_INT32", "tensorShape": {"dim": [{"size": "1"}]}}}, "dtype": {"type": "DT_INT32"}}}, {"name": "StatefulPartitionedCall/lstm_model/lstm/strided_slice/stack_1", "op": "Const", "attr": {"value": {"tensor": {"dtype": "DT_INT32", "tensorShape": {"dim": [{"size": "1"}]}}}, "dtype": {"type": "DT_INT32"}}}, {"name": "StatefulPartitionedCall/lstm_model/lstm/strided_slice/stack_2", "op": "Const", "attr": {"dtype": {"type": "DT_INT32"}, "value": {"tensor": {"dtype": "DT_INT32", "tensorShape": {"dim": [{"size": "1"}]}}}}}, {"name": "StatefulPartitionedCall/lstm_model/lstm/zeros/packed/1", "op": "Const", "attr": {"value": {"tensor": {"dtype": "DT_INT32", "tensorShape": {}}}, "dtype": {"type": "DT_INT32"}}}, {"name": "StatefulPartitionedCall/lstm_model/lstm/zeros/Const", "op": "Const", "attr": {"dtype": {"type": "DT_FLOAT"}, "value": {"tensor": {"dtype": "DT_FLOAT", "tensorShape": {}}}}}, {"name": "StatefulPartitionedCall/lstm_model/lstm/Read_1/ReadVariableOp", "op": "Const", "attr": {"dtype": {"type": "DT_FLOAT"}, "value": {"tensor": {"dtype": "DT_FLOAT", "tensorShape": {"dim": [{"size": "128"}, {"size": "512"}]}}}}}, {"name": "StatefulPartitionedCall/lstm_model/lstm/Read_2/ReadVariableOp", "op": "Const", "attr": {"value": {"tensor": {"dtype": "DT_FLOAT", "tensorShape": {"dim": [{"size": "512"}]}}}, "dtype": {"type": "DT_FLOAT"}}}, {"name": "StatefulPartitionedCall/lstm_model/lstm/PartitionedCall/time", "op": "Const", "attr": {"dtype": {"type": "DT_INT32"}, "value": {"tensor": {"dtype": "DT_INT32", "tensorShape": {}}}}}, {"name": "StatefulPartitionedCall/lstm_model/lstm/ones_like/Const", "op": "Const", "attr": {"dtype": {"type": "DT_FLOAT"}, "value": {"tensor": {"dtype": "DT_FLOAT", "tensorShape": {}}}}}, {"name": "StatefulPartitionedCall/lstm_model/lstm/PartitionedCall/transpose/perm", "op": "Const", "attr": {"value": {"tensor": {"dtype": "DT_INT32", "tensorShape": {"dim": [{"size": "3"}]}}}, "dtype": {"type": "DT_INT32"}}}, {"name": "StatefulPartitionedCall/lstm_model/lstm/PartitionedCall/strided_slice/stack", "op": "Const", "attr": {"value": {"tensor": {"dtype": "DT_INT32", "tensorShape": {"dim": [{"size": "1"}]}}}, "dtype": {"type": "DT_INT32"}}}, {"name": "StatefulPartitionedCall/lstm_model/lstm/PartitionedCall/strided_slice/stack_1", "op": "Const", "attr": {"dtype": {"type": "DT_INT32"}, "value": {"tensor": {"dtype": "DT_INT32", "tensorShape": {"dim": [{"size": "1"}]}}}}}, {"name": "StatefulPartitionedCall/lstm_model/lstm/PartitionedCall/strided_slice/stack_2", "op": "Const", "attr": {"value": {"tensor": {"dtype": "DT_INT32", "tensorShape": {"dim": [{"size": "1"}]}}}, "dtype": {"type": "DT_INT32"}}}, {"name": "StatefulPartitionedCall/lstm_model/lstm/PartitionedCall/while/loop_counter", "op": "Const", "attr": {"dtype": {"type": "DT_INT32"}, "value": {"tensor": {"dtype": "DT_INT32", "tensorShape": {}}}}}, {"name": "StatefulPartitionedCall/lstm_model/lstm/PartitionedCall/TensorArrayV2Stack/TensorListStack/element_shape", "op": "Const", "attr": {"value": {"tensor": {"dtype": "DT_INT32", "tensorShape": {"dim": [{"size": "2"}]}}}, "dtype": {"type": "DT_INT32"}}}, {"name": "StatefulPartitionedCall/lstm_model/lstm/PartitionedCall/transpose_2/perm", "op": "Const", "attr": {"dtype": {"type": "DT_INT32"}, "value": {"tensor": {"dtype": "DT_INT32", "tensorShape": {"dim": [{"size": "3"}]}}}}}, {"name": "StatefulPartitionedCall/lstm_model/lstm_1/PartitionedCall/strided_slice/stack", "op": "Const", "attr": {"dtype": {"type": "DT_INT32"}, "value": {"tensor": {"dtype": "DT_INT32", "tensorShape": {"dim": [{"size": "1"}]}}}}}, {"name": "StatefulPartitionedCall/lstm_model/lstm_1/PartitionedCall/strided_slice/stack_1", "op": "Const", "attr": {"value": {"tensor": {"dtype": "DT_INT32", "tensorShape": {"dim": [{"size": "1"}]}}}, "dtype": {"type": "DT_INT32"}}}, {"name": "StatefulPartitionedCall/lstm_model/lstm_1/PartitionedCall/strided_slice/stack_2", "op": "Const", "attr": {"value": {"tensor": {"dtype": "DT_INT32", "tensorShape": {"dim": [{"size": "1"}]}}}, "dtype": {"type": "DT_INT32"}}}, {"name": "StatefulPartitionedCall/lstm_model/lstm_1/PartitionedCall/while/loop_counter", "op": "Const", "attr": {"dtype": {"type": "DT_INT32"}, "value": {"tensor": {"dtype": "DT_INT32", "tensorShape": {}}}}}, {"name": "StatefulPartitionedCall/lstm_model/lstm_1/PartitionedCall/TensorArrayV2Stack/TensorListStack/element_shape", "op": "Const", "attr": {"dtype": {"type": "DT_INT32"}, "value": {"tensor": {"dtype": "DT_INT32", "tensorShape": {"dim": [{"size": "2"}]}}}}}, {"name": "StatefulPartitionedCall/lstm_model/lstm_1/PartitionedCall/transpose_2/perm", "op": "Const", "attr": {"value": {"tensor": {"dtype": "DT_INT32", "tensorShape": {"dim": [{"size": "3"}]}}}, "dtype": {"type": "DT_INT32"}}}, {"name": "StatefulPartitionedCall/lstm_model/lstm_2/PartitionedCall/strided_slice/stack", "op": "Const", "attr": {"value": {"tensor": {"dtype": "DT_INT32", "tensorShape": {"dim": [{"size": "1"}]}}}, "dtype": {"type": "DT_INT32"}}}, {"name": "StatefulPartitionedCall/lstm_model/lstm_2/PartitionedCall/strided_slice/stack_1", "op": "Const", "attr": {"value": {"tensor": {"dtype": "DT_INT32", "tensorShape": {"dim": [{"size": "1"}]}}}, "dtype": {"type": "DT_INT32"}}}, {"name": "StatefulPartitionedCall/lstm_model/lstm_2/PartitionedCall/strided_slice/stack_2", "op": "Const", "attr": {"value": {"tensor": {"dtype": "DT_INT32", "tensorShape": {"dim": [{"size": "1"}]}}}, "dtype": {"type": "DT_INT32"}}}, {"name": "StatefulPartitionedCall/lstm_model/lstm_2/PartitionedCall/while/loop_counter", "op": "Const", "attr": {"dtype": {"type": "DT_INT32"}, "value": {"tensor": {"dtype": "DT_INT32", "tensorShape": {}}}}}, {"name": "StatefulPartitionedCall/lstm_model/lstm_2/PartitionedCall/TensorArrayV2Stack/TensorListStack/element_shape", "op": "Const", "attr": {"value": {"tensor": {"dtype": "DT_INT32", "tensorShape": {"dim": [{"size": "2"}]}}}, "dtype": {"type": "DT_INT32"}}}, {"name": "StatefulPartitionedCall/lstm_model/lstm_2/PartitionedCall/transpose_2/perm", "op": "Const", "attr": {"dtype": {"type": "DT_INT32"}, "value": {"tensor": {"dtype": "DT_INT32", "tensorShape": {"dim": [{"size": "3"}]}}}}}, {"name": "StatefulPartitionedCall/lstm_model/dense/Tensordot/free", "op": "Const", "attr": {"value": {"tensor": {"dtype": "DT_INT32", "tensorShape": {"dim": [{"size": "2"}]}}}, "dtype": {"type": "DT_INT32"}}}, {"name": "StatefulPartitionedCall/lstm_model/dense/Tensordot/GatherV2/axis", "op": "Const", "attr": {"dtype": {"type": "DT_INT32"}, "value": {"tensor": {"dtype": "DT_INT32", "tensorShape": {}}}}}, {"name": "StatefulPartitionedCall/lstm_model/dense/Tensordot/Const_2", "op": "Const", "attr": {"value": {"tensor": {"dtype": "DT_INT32", "tensorShape": {"dim": [{"size": "1"}]}}}, "dtype": {"type": "DT_INT32"}}}, {"name": "StatefulPartitionedCall/lstm_model/dense/Tensordot/concat_1/axis", "op": "Const", "attr": {"dtype": {"type": "DT_INT32"}, "value": {"tensor": {"dtype": "DT_INT32", "tensorShape": {}}}}}, {"name": "StatefulPartitionedCall/lstm_model/dense/BiasAdd/ReadVariableOp", "op": "Const", "attr": {"dtype": {"type": "DT_FLOAT"}, "value": {"tensor": {"dtype": "DT_FLOAT", "tensorShape": {"dim": [{"size": "93"}]}}}}}, {"name": "unknown", "op": "Const", "attr": {"value": {"tensor": {"dtype": "DT_FLOAT", "tensorShape": {"dim": [{"size": "94"}, {"size": "128"}]}}}, "dtype": {"type": "DT_FLOAT"}}}, {"name": "StatefulPartitionedCall/lstm_model/embedding/embedding_lookup/axis", "op": "Const", "attr": {"dtype": {"type": "DT_INT32"}, "value": {"tensor": {"dtype": "DT_INT32", "tensorShape": {}}}}}, {"name": "input_1", "op": "Placeholder", "attr": {"dtype": {"type": "DT_FLOAT"}, "shape": {"shape": {"dim": [{"size": "-1"}, {"size": "-1"}]}}}}, {"name": "StatefulPartitionedCall/lstm_model/lstm_2/PartitionedCall/while/enter/_203", "op": "Enter", "input": ["StatefulPartitionedCall/lstm_model/lstm_2/Read/ReadVariableOp"], "attr": {"T": {"type": "DT_FLOAT"}, "frame_name": {"s": "U3RhdGVmdWxQYXJ0aXRpb25lZENhbGwvbHN0bV9tb2RlbC9sc3RtXzIvUGFydGl0aW9uZWRDYWxsL3doaWxl"}, "parallel_iterations": {"i": "32"}, "is_constant": {"b": false}}}, {"name": "StatefulPartitionedCall/lstm_model/lstm_2/PartitionedCall/while/enter/_204", "op": "Enter", "input": ["StatefulPartitionedCall/lstm_model/lstm_2/Read_1/ReadVariableOp"], "attr": {"T": {"type": "DT_FLOAT"}, "is_constant": {"b": false}, "frame_name": {"s": "U3RhdGVmdWxQYXJ0aXRpb25lZENhbGwvbHN0bV9tb2RlbC9sc3RtXzIvUGFydGl0aW9uZWRDYWxsL3doaWxl"}, "parallel_iterations": {"i": "32"}}}, {"name": "StatefulPartitionedCall/lstm_model/lstm_2/PartitionedCall/while/enter/_205", "op": "Enter", "input": ["StatefulPartitionedCall/lstm_model/lstm_2/Read_2/ReadVariableOp"], "attr": {"frame_name": {"s": "U3RhdGVmdWxQYXJ0aXRpb25lZENhbGwvbHN0bV9tb2RlbC9sc3RtXzIvUGFydGl0aW9uZWRDYWxsL3doaWxl"}, "T": {"type": "DT_FLOAT"}, "is_constant": {"b": false}, "parallel_iterations": {"i": "32"}}}, {"name": "StatefulPartitionedCall/lstm_model/lstm_2/PartitionedCall/while/enter/_195", "op": "Enter", "input": ["StatefulPartitionedCall/lstm_model/lstm_2/PartitionedCall/time"], "attr": {"T": {"type": "DT_INT32"}, "frame_name": {"s": "U3RhdGVmdWxQYXJ0aXRpb25lZENhbGwvbHN0bV9tb2RlbC9sc3RtXzIvUGFydGl0aW9uZWRDYWxsL3doaWxl"}, "is_constant": {"b": false}, "parallel_iterations": {"i": "32"}}}, {"name": "StatefulPartitionedCall/lstm_model/lstm_1/PartitionedCall/while/enter/_133", "op": "Enter", "input": ["StatefulPartitionedCall/lstm_model/lstm_1/Read/ReadVariableOp"], "attr": {"parallel_iterations": {"i": "32"}, "is_constant": {"b": false}, "T": {"type": "DT_FLOAT"}, "frame_name": {"s": "U3RhdGVmdWxQYXJ0aXRpb25lZENhbGwvbHN0bV9tb2RlbC9sc3RtXzEvUGFydGl0aW9uZWRDYWxsL3doaWxl"}}}, {"name": "StatefulPartitionedCall/lstm_model/lstm_1/PartitionedCall/while/enter/_134", "op": "Enter", "input": ["StatefulPartitionedCall/lstm_model/lstm_1/Read_1/ReadVariableOp"], "attr": {"T": {"type": "DT_FLOAT"}, "parallel_iterations": {"i": "32"}, "is_constant": {"b": false}, "frame_name": {"s": "U3RhdGVmdWxQYXJ0aXRpb25lZENhbGwvbHN0bV9tb2RlbC9sc3RtXzEvUGFydGl0aW9uZWRDYWxsL3doaWxl"}}}, {"name": "StatefulPartitionedCall/lstm_model/lstm_1/PartitionedCall/while/enter/_135", "op": "Enter", "input": ["StatefulPartitionedCall/lstm_model/lstm_1/Read_2/ReadVariableOp"], "attr": {"is_constant": {"b": false}, "frame_name": {"s": "U3RhdGVmdWxQYXJ0aXRpb25lZENhbGwvbHN0bV9tb2RlbC9sc3RtXzEvUGFydGl0aW9uZWRDYWxsL3doaWxl"}, "parallel_iterations": {"i": "32"}, "T": {"type": "DT_FLOAT"}}}, {"name": "StatefulPartitionedCall/lstm_model/lstm_1/PartitionedCall/while/enter/_125", "op": "Enter", "input": ["StatefulPartitionedCall/lstm_model/lstm_1/PartitionedCall/time"], "attr": {"frame_name": {"s": "U3RhdGVmdWxQYXJ0aXRpb25lZENhbGwvbHN0bV9tb2RlbC9sc3RtXzEvUGFydGl0aW9uZWRDYWxsL3doaWxl"}, "T": {"type": "DT_INT32"}, "parallel_iterations": {"i": "32"}, "is_constant": {"b": false}}}, {"name": "StatefulPartitionedCall/lstm_model/lstm/PartitionedCall/while/enter/_63", "op": "Enter", "input": ["StatefulPartitionedCall/lstm_model/lstm/Read/ReadVariableOp"], "attr": {"is_constant": {"b": false}, "parallel_iterations": {"i": "32"}, "T": {"type": "DT_FLOAT"}, "frame_name": {"s": "U3RhdGVmdWxQYXJ0aXRpb25lZENhbGwvbHN0bV9tb2RlbC9sc3RtL1BhcnRpdGlvbmVkQ2FsbC93aGlsZQ=="}}}, {"name": "StatefulPartitionedCall/lstm_model/lstm/PartitionedCall/while/enter/_64", "op": "Enter", "input": ["StatefulPartitionedCall/lstm_model/lstm/Read_1/ReadVariableOp"], "attr": {"parallel_iterations": {"i": "32"}, "frame_name": {"s": "U3RhdGVmdWxQYXJ0aXRpb25lZENhbGwvbHN0bV9tb2RlbC9sc3RtL1BhcnRpdGlvbmVkQ2FsbC93aGlsZQ=="}, "is_constant": {"b": false}, "T": {"type": "DT_FLOAT"}}}, {"name": "StatefulPartitionedCall/lstm_model/lstm/PartitionedCall/while/enter/_65", "op": "Enter", "input": ["StatefulPartitionedCall/lstm_model/lstm/Read_2/ReadVariableOp"], "attr": {"frame_name": {"s": "U3RhdGVmdWxQYXJ0aXRpb25lZENhbGwvbHN0bV9tb2RlbC9sc3RtL1BhcnRpdGlvbmVkQ2FsbC93aGlsZQ=="}, "is_constant": {"b": false}, "parallel_iterations": {"i": "32"}, "T": {"type": "DT_FLOAT"}}}, {"name": "StatefulPartitionedCall/lstm_model/lstm/PartitionedCall/while/enter/_55", "op": "Enter", "input": ["StatefulPartitionedCall/lstm_model/lstm/PartitionedCall/time"], "attr": {"frame_name": {"s": "U3RhdGVmdWxQYXJ0aXRpb25lZENhbGwvbHN0bV9tb2RlbC9sc3RtL1BhcnRpdGlvbmVkQ2FsbC93aGlsZQ=="}, "T": {"type": "DT_INT32"}, "is_constant": {"b": false}, "parallel_iterations": {"i": "32"}}}, {"name": "StatefulPartitionedCall/lstm_model/lstm/PartitionedCall/while/enter/_53", "op": "Enter", "input": ["StatefulPartitionedCall/lstm_model/lstm/PartitionedCall/while/loop_counter"], "attr": {"T": {"type": "DT_INT32"}, "frame_name": {"s": "U3RhdGVmdWxQYXJ0aXRpb25lZENhbGwvbHN0bV9tb2RlbC9sc3RtL1BhcnRpdGlvbmVkQ2FsbC93aGlsZQ=="}, "is_constant": {"b": false}, "parallel_iterations": {"i": "32"}}}, {"name": "StatefulPartitionedCall/lstm_model/lstm_1/PartitionedCall/while/enter/_123", "op": "Enter", "input": ["StatefulPartitionedCall/lstm_model/lstm_1/PartitionedCall/while/loop_counter"], "attr": {"is_constant": {"b": false}, "T": {"type": "DT_INT32"}, "parallel_iterations": {"i": "32"}, "frame_name": {"s": "U3RhdGVmdWxQYXJ0aXRpb25lZENhbGwvbHN0bV9tb2RlbC9sc3RtXzEvUGFydGl0aW9uZWRDYWxsL3doaWxl"}}}, {"name": "StatefulPartitionedCall/lstm_model/lstm_2/PartitionedCall/while/enter/_193", "op": "Enter", "input": ["StatefulPartitionedCall/lstm_model/lstm_2/PartitionedCall/while/loop_counter"], "attr": {"parallel_iterations": {"i": "32"}, "frame_name": {"s": "U3RhdGVmdWxQYXJ0aXRpb25lZENhbGwvbHN0bV9tb2RlbC9sc3RtXzIvUGFydGl0aW9uZWRDYWxsL3doaWxl"}, "T": {"type": "DT_INT32"}, "is_constant": {"b": false}}}, {"name": "StatefulPartitionedCall/lstm_model/embedding/NotEqual", "op": "NotEqual", "input": ["input_1", "StatefulPartitionedCall/lstm_model/embedding/NotEqual/y"], "attr": {"T": {"type": "DT_FLOAT"}, "incompatible_shape_error": {"b": true}}}, {"name": "StatefulPartitionedCall/lstm_model/embedding/Cast", "op": "Cast", "input": ["input_1"], "attr": {"Truncate": {"b": false}, "DstT": {"type": "DT_INT32"}, "SrcT": {"type": "DT_FLOAT"}}}, {"name": "StatefulPartitionedCall/lstm_model/lstm_2/PartitionedCall/while/merge/_216", "op": "Merge", "input": ["StatefulPartitionedCall/lstm_model/lstm_2/PartitionedCall/while/enter/_203", "StatefulPartitionedCall/lstm_model/lstm_2/PartitionedCall/while/next_iteration/_258"], "attr": {"N": {"i": "2"}, "T": {"type": "DT_FLOAT"}}}, {"name": "StatefulPartitionedCall/lstm_model/lstm_2/PartitionedCall/while/merge/_217", "op": "Merge", "input": ["StatefulPartitionedCall/lstm_model/lstm_2/PartitionedCall/while/enter/_204", "StatefulPartitionedCall/lstm_model/lstm_2/PartitionedCall/while/next_iteration/_259"], "attr": {"N": {"i": "2"}, "T": {"type": "DT_FLOAT"}}}, {"name": "StatefulPartitionedCall/lstm_model/lstm_2/PartitionedCall/while/merge/_218", "op": "Merge", "input": ["StatefulPartitionedCall/lstm_model/lstm_2/PartitionedCall/while/enter/_205", "StatefulPartitionedCall/lstm_model/lstm_2/PartitionedCall/while/next_iteration/_260"], "attr": {"N": {"i": "2"}, "T": {"type": "DT_FLOAT"}}}, {"name": "StatefulPartitionedCall/lstm_model/lstm_2/PartitionedCall/while/merge/_208", "op": "Merge", "input": ["StatefulPartitionedCall/lstm_model/lstm_2/PartitionedCall/while/enter/_195", "StatefulPartitionedCall/lstm_model/lstm_2/PartitionedCall/while/next_iteration/_250"], "attr": {"T": {"type": "DT_INT32"}, "N": {"i": "2"}}}, {"name": "StatefulPartitionedCall/lstm_model/lstm_1/PartitionedCall/while/merge/_146", "op": "Merge", "input": ["StatefulPartitionedCall/lstm_model/lstm_1/PartitionedCall/while/enter/_133", "StatefulPartitionedCall/lstm_model/lstm_1/PartitionedCall/while/next_iteration/_188"], "attr": {"N": {"i": "2"}, "T": {"type": "DT_FLOAT"}}}, {"name": "StatefulPartitionedCall/lstm_model/lstm_1/PartitionedCall/while/merge/_147", "op": "Merge", "input": ["StatefulPartitionedCall/lstm_model/lstm_1/PartitionedCall/while/enter/_134", "StatefulPartitionedCall/lstm_model/lstm_1/PartitionedCall/while/next_iteration/_189"], "attr": {"T": {"type": "DT_FLOAT"}, "N": {"i": "2"}}}, {"name": "StatefulPartitionedCall/lstm_model/lstm_1/PartitionedCall/while/merge/_148", "op": "Merge", "input": ["StatefulPartitionedCall/lstm_model/lstm_1/PartitionedCall/while/enter/_135", "StatefulPartitionedCall/lstm_model/lstm_1/PartitionedCall/while/next_iteration/_190"], "attr": {"N": {"i": "2"}, "T": {"type": "DT_FLOAT"}}}, {"name": "StatefulPartitionedCall/lstm_model/lstm_1/PartitionedCall/while/merge/_138", "op": "Merge", "input": ["StatefulPartitionedCall/lstm_model/lstm_1/PartitionedCall/while/enter/_125", "StatefulPartitionedCall/lstm_model/lstm_1/PartitionedCall/while/next_iteration/_180"], "attr": {"T": {"type": "DT_INT32"}, "N": {"i": "2"}}}, {"name": "StatefulPartitionedCall/lstm_model/lstm/PartitionedCall/while/merge/_76", "op": "Merge", "input": ["StatefulPartitionedCall/lstm_model/lstm/PartitionedCall/while/enter/_63", "StatefulPartitionedCall/lstm_model/lstm/PartitionedCall/while/next_iteration/_118"], "attr": {"T": {"type": "DT_FLOAT"}, "N": {"i": "2"}}}, {"name": "StatefulPartitionedCall/lstm_model/lstm/PartitionedCall/while/merge/_77", "op": "Merge", "input": ["StatefulPartitionedCall/lstm_model/lstm/PartitionedCall/while/enter/_64", "StatefulPartitionedCall/lstm_model/lstm/PartitionedCall/while/next_iteration/_119"], "attr": {"T": {"type": "DT_FLOAT"}, "N": {"i": "2"}}}, {"name": "StatefulPartitionedCall/lstm_model/lstm/PartitionedCall/while/merge/_78", "op": "Merge", "input": ["StatefulPartitionedCall/lstm_model/lstm/PartitionedCall/while/enter/_65", "StatefulPartitionedCall/lstm_model/lstm/PartitionedCall/while/next_iteration/_120"], "attr": {"T": {"type": "DT_FLOAT"}, "N": {"i": "2"}}}, {"name": "StatefulPartitionedCall/lstm_model/lstm/PartitionedCall/while/merge/_68", "op": "Merge", "input": ["StatefulPartitionedCall/lstm_model/lstm/PartitionedCall/while/enter/_55", "StatefulPartitionedCall/lstm_model/lstm/PartitionedCall/while/next_iteration/_110"], "attr": {"N": {"i": "2"}, "T": {"type": "DT_INT32"}}}, {"name": "StatefulPartitionedCall/lstm_model/lstm/PartitionedCall/while/merge/_66", "op": "Merge", "input": ["StatefulPartitionedCall/lstm_model/lstm/PartitionedCall/while/enter/_53", "StatefulPartitionedCall/lstm_model/lstm/PartitionedCall/while/next_iteration/_108"], "attr": {"T": {"type": "DT_INT32"}, "N": {"i": "2"}}}, {"name": "StatefulPartitionedCall/lstm_model/lstm_1/PartitionedCall/while/merge/_136", "op": "Merge", "input": ["StatefulPartitionedCall/lstm_model/lstm_1/PartitionedCall/while/enter/_123", "StatefulPartitionedCall/lstm_model/lstm_1/PartitionedCall/while/next_iteration/_178"], "attr": {"T": {"type": "DT_INT32"}, "N": {"i": "2"}}}, {"name": "StatefulPartitionedCall/lstm_model/lstm_2/PartitionedCall/while/merge/_206", "op": "Merge", "input": ["StatefulPartitionedCall/lstm_model/lstm_2/PartitionedCall/while/enter/_193", "StatefulPartitionedCall/lstm_model/lstm_2/PartitionedCall/while/next_iteration/_248"], "attr": {"N": {"i": "2"}, "T": {"type": "DT_INT32"}}}, {"name": "StatefulPartitionedCall/lstm_model/lstm_2/PartitionedCall/ExpandDims", "op": "ExpandDims", "input": ["StatefulPartitionedCall/lstm_model/embedding/NotEqual", "StatefulPartitionedCall/lstm_model/lstm_2/PartitionedCall/ExpandDims/dim"], "attr": {"T": {"type": "DT_BOOL"}, "Tdim": {"type": "DT_INT32"}}}, {"name": "StatefulPartitionedCall/lstm_model/lstm_1/PartitionedCall/ExpandDims", "op": "ExpandDims", "input": ["StatefulPartitionedCall/lstm_model/embedding/NotEqual", "StatefulPartitionedCall/lstm_model/lstm_1/PartitionedCall/ExpandDims/dim"], "attr": {"T": {"type": "DT_BOOL"}, "Tdim": {"type": "DT_INT32"}}}, {"name": "StatefulPartitionedCall/lstm_model/lstm/PartitionedCall/ExpandDims", "op": "ExpandDims", "input": ["StatefulPartitionedCall/lstm_model/embedding/NotEqual", "StatefulPartitionedCall/lstm_model/lstm/PartitionedCall/ExpandDims/dim"], "attr": {"Tdim": {"type": "DT_INT32"}, "T": {"type": "DT_BOOL"}}}, {"name": "StatefulPartitionedCall/lstm_model/embedding/embedding_lookup", "op": "GatherV2", "input": ["unknown", "StatefulPartitionedCall/lstm_model/embedding/Cast", "StatefulPartitionedCall/lstm_model/embedding/embedding_lookup/axis"], "attr": {"batch_dims": {"i": "0"}, "Tindices": {"type": "DT_INT32"}, "Tparams": {"type": "DT_FLOAT"}, "Taxis": {"type": "DT_INT32"}}}, {"name": "StatefulPartitionedCall/lstm_model/lstm_2/PartitionedCall/transpose_1", "op": "Transpose", "input": ["StatefulPartitionedCall/lstm_model/lstm_2/PartitionedCall/ExpandDims", "StatefulPartitionedCall/lstm_model/lstm_2/PartitionedCall/transpose_1/perm"], "attr": {"Tperm": {"type": "DT_INT32"}, "T": {"type": "DT_BOOL"}}}, {"name": "StatefulPartitionedCall/lstm_model/lstm_1/PartitionedCall/transpose_1", "op": "Transpose", "input": ["StatefulPartitionedCall/lstm_model/lstm_1/PartitionedCall/ExpandDims", "StatefulPartitionedCall/lstm_model/lstm_1/PartitionedCall/transpose_1/perm"], "attr": {"T": {"type": "DT_BOOL"}, "Tperm": {"type": "DT_INT32"}}}, {"name": "StatefulPartitionedCall/lstm_model/lstm/PartitionedCall/transpose_1", "op": "Transpose", "input": ["StatefulPartitionedCall/lstm_model/lstm/PartitionedCall/ExpandDims", "StatefulPartitionedCall/lstm_model/lstm/PartitionedCall/transpose_1/perm"], "attr": {"Tperm": {"type": "DT_INT32"}, "T": {"type": "DT_BOOL"}}}, {"name": "StatefulPartitionedCall/lstm_model/lstm/Shape", "op": "Shape", "input": ["StatefulPartitionedCall/lstm_model/embedding/embedding_lookup"], "attr": {"out_type": {"type": "DT_INT32"}, "T": {"type": "DT_FLOAT"}}}, {"name": "StatefulPartitionedCall/lstm_model/lstm/ones_like/Shape", "op": "Shape", "input": ["StatefulPartitionedCall/lstm_model/embedding/embedding_lookup"], "attr": {"T": {"type": "DT_FLOAT"}, "out_type": {"type": "DT_INT32"}}}, {"name": "StatefulPartitionedCall/lstm_model/lstm_2/PartitionedCall/TensorArrayUnstack_1/TensorListFromTensor", "op": "TensorListFromTensor", "input": ["StatefulPartitionedCall/lstm_model/lstm_2/PartitionedCall/transpose_1", "StatefulPartitionedCall/lstm_model/lstm_2/PartitionedCall/TensorArrayUnstack_1/TensorListFromTensor/element_shape"], "attr": {"shape_type": {"type": "DT_INT32"}, "element_dtype": {"type": "DT_BOOL"}}, "experimentalType": {"typeId": "TFT_PRODUCT", "args": [{"typeId": "TFT_ARRAY", "args": [{"typeId": "TFT_TENSOR", "args": [{"typeId": "TFT_BOOL"}]}]}]}}, {"name": "StatefulPartitionedCall/lstm_model/lstm_1/PartitionedCall/TensorArrayUnstack_1/TensorListFromTensor", "op": "TensorListFromTensor", "input": ["StatefulPartitionedCall/lstm_model/lstm_1/PartitionedCall/transpose_1", "StatefulPartitionedCall/lstm_model/lstm_1/PartitionedCall/TensorArrayUnstack_1/TensorListFromTensor/element_shape"], "attr": {"element_dtype": {"type": "DT_BOOL"}, "shape_type": {"type": "DT_INT32"}}, "experimentalType": {"typeId": "TFT_PRODUCT", "args": [{"typeId": "TFT_ARRAY", "args": [{"typeId": "TFT_TENSOR", "args": [{"typeId": "TFT_BOOL"}]}]}]}}, {"name": "StatefulPartitionedCall/lstm_model/lstm/PartitionedCall/TensorArrayUnstack_1/TensorListFromTensor", "op": "TensorListFromTensor", "input": ["StatefulPartitionedCall/lstm_model/lstm/PartitionedCall/transpose_1", "StatefulPartitionedCall/lstm_model/lstm/PartitionedCall/TensorArrayUnstack_1/TensorListFromTensor/element_shape"], "attr": {"shape_type": {"type": "DT_INT32"}, "element_dtype": {"type": "DT_BOOL"}}, "experimentalType": {"typeId": "TFT_PRODUCT", "args": [{"typeId": "TFT_ARRAY", "args": [{"typeId": "TFT_TENSOR", "args": [{"typeId": "TFT_BOOL"}]}]}]}}, {"name": "StatefulPartitionedCall/lstm_model/lstm/strided_slice", "op": "StridedSlice", "input": ["StatefulPartitionedCall/lstm_model/lstm/Shape", "StatefulPartitionedCall/lstm_model/lstm/strided_slice/stack", "StatefulPartitionedCall/lstm_model/lstm/strided_slice/stack_1", "StatefulPartitionedCall/lstm_model/lstm/strided_slice/stack_2"], "attr": {"T": {"type": "DT_INT32"}, "end_mask": {"i": "0"}, "new_axis_mask": {"i": "0"}, "begin_mask": {"i": "0"}, "Index": {"type": "DT_INT32"}, "ellipsis_mask": {"i": "0"}, "shrink_axis_mask": {"i": "1"}}}, {"name": "StatefulPartitionedCall/lstm_model/lstm/ones_like", "op": "Fill", "input": ["StatefulPartitionedCall/lstm_model/lstm/ones_like/Shape", "StatefulPartitionedCall/lstm_model/lstm/ones_like/Const"], "attr": {"index_type": {"type": "DT_INT32"}, "T": {"type": "DT_FLOAT"}}}, {"name": "StatefulPartitionedCall/lstm_model/lstm_2/PartitionedCall/while/enter/_202", "op": "Enter", "input": ["StatefulPartitionedCall/lstm_model/lstm_2/PartitionedCall/TensorArrayUnstack_1/TensorListFromTensor"], "attr": {"T": {"type": "DT_VARIANT"}, "frame_name": {"s": "U3RhdGVmdWxQYXJ0aXRpb25lZENhbGwvbHN0bV9tb2RlbC9sc3RtXzIvUGFydGl0aW9uZWRDYWxsL3doaWxl"}, "is_constant": {"b": false}, "parallel_iterations": {"i": "32"}}}, {"name": "StatefulPartitionedCall/lstm_model/lstm_1/PartitionedCall/while/enter/_132", "op": "Enter", "input": ["StatefulPartitionedCall/lstm_model/lstm_1/PartitionedCall/TensorArrayUnstack_1/TensorListFromTensor"], "attr": {"parallel_iterations": {"i": "32"}, "frame_name": {"s": "U3RhdGVmdWxQYXJ0aXRpb25lZENhbGwvbHN0bV9tb2RlbC9sc3RtXzEvUGFydGl0aW9uZWRDYWxsL3doaWxl"}, "is_constant": {"b": false}, "T": {"type": "DT_VARIANT"}}}, {"name": "StatefulPartitionedCall/lstm_model/lstm/PartitionedCall/while/enter/_62", "op": "Enter", "input": ["StatefulPartitionedCall/lstm_model/lstm/PartitionedCall/TensorArrayUnstack_1/TensorListFromTensor"], "attr": {"T": {"type": "DT_VARIANT"}, "frame_name": {"s": "U3RhdGVmdWxQYXJ0aXRpb25lZENhbGwvbHN0bV9tb2RlbC9sc3RtL1BhcnRpdGlvbmVkQ2FsbC93aGlsZQ=="}, "parallel_iterations": {"i": "32"}, "is_constant": {"b": false}}}, {"name": "StatefulPartitionedCall/lstm_model/lstm/zeros_1/packed", "op": "Pack", "input": ["StatefulPartitionedCall/lstm_model/lstm/strided_slice", "StatefulPartitionedCall/lstm_model/lstm/zeros_1/packed/1"], "attr": {"axis": {"i": "0"}, "T": {"type": "DT_INT32"}, "N": {"i": "2"}}}, {"name": "StatefulPartitionedCall/lstm_model/lstm/zeros/packed", "op": "Pack", "input": ["StatefulPartitionedCall/lstm_model/lstm/strided_slice", "StatefulPartitionedCall/lstm_model/lstm/zeros/packed/1"], "attr": {"T": {"type": "DT_INT32"}, "axis": {"i": "0"}, "N": {"i": "2"}}}, {"name": "StatefulPartitionedCall/lstm_model/lstm/mul", "op": "Mul", "input": ["StatefulPartitionedCall/lstm_model/embedding/embedding_lookup", "StatefulPartitionedCall/lstm_model/lstm/ones_like"], "attr": {"T": {"type": "DT_FLOAT"}}}, {"name": "StatefulPartitionedCall/lstm_model/lstm_2/PartitionedCall/while/merge/_215", "op": "Merge", "input": ["StatefulPartitionedCall/lstm_model/lstm_2/PartitionedCall/while/enter/_202", "StatefulPartitionedCall/lstm_model/lstm_2/PartitionedCall/while/next_iteration/_257"], "attr": {"T": {"type": "DT_VARIANT"}, "N": {"i": "2"}}}, {"name": "StatefulPartitionedCall/lstm_model/lstm_1/PartitionedCall/while/merge/_145", "op": "Merge", "input": ["StatefulPartitionedCall/lstm_model/lstm_1/PartitionedCall/while/enter/_132", "StatefulPartitionedCall/lstm_model/lstm_1/PartitionedCall/while/next_iteration/_187"], "attr": {"T": {"type": "DT_VARIANT"}, "N": {"i": "2"}}}, {"name": "StatefulPartitionedCall/lstm_model/lstm/PartitionedCall/while/merge/_75", "op": "Merge", "input": ["StatefulPartitionedCall/lstm_model/lstm/PartitionedCall/while/enter/_62", "StatefulPartitionedCall/lstm_model/lstm/PartitionedCall/while/next_iteration/_117"], "attr": {"T": {"type": "DT_VARIANT"}, "N": {"i": "2"}}}, {"name": "StatefulPartitionedCall/lstm_model/lstm/zeros_1", "op": "Fill", "input": ["StatefulPartitionedCall/lstm_model/lstm/zeros_1/packed", "StatefulPartitionedCall/lstm_model/lstm/zeros_1/Const"], "attr": {"index_type": {"type": "DT_INT32"}, "T": {"type": "DT_FLOAT"}}}, {"name": "StatefulPartitionedCall/lstm_model/lstm/zeros", "op": "Fill", "input": ["StatefulPartitionedCall/lstm_model/lstm/zeros/packed", "StatefulPartitionedCall/lstm_model/lstm/zeros/Const"], "attr": {"index_type": {"type": "DT_INT32"}, "T": {"type": "DT_FLOAT"}}}, {"name": "StatefulPartitionedCall/lstm_model/lstm/PartitionedCall/transpose", "op": "Transpose", "input": ["StatefulPartitionedCall/lstm_model/lstm/mul", "StatefulPartitionedCall/lstm_model/lstm/PartitionedCall/transpose/perm"], "attr": {"Tperm": {"type": "DT_INT32"}, "T": {"type": "DT_FLOAT"}}}, {"name": "StatefulPartitionedCall/lstm_model/lstm/PartitionedCall/while/enter/_59", "op": "Enter", "input": ["StatefulPartitionedCall/lstm_model/lstm/zeros_1"], "attr": {"T": {"type": "DT_FLOAT"}, "parallel_iterations": {"i": "32"}, "frame_name": {"s": "U3RhdGVmdWxQYXJ0aXRpb25lZENhbGwvbHN0bV9tb2RlbC9sc3RtL1BhcnRpdGlvbmVkQ2FsbC93aGlsZQ=="}, "is_constant": {"b": false}}}, {"name": "StatefulPartitionedCall/lstm_model/lstm/PartitionedCall/while/enter/_58", "op": "Enter", "input": ["StatefulPartitionedCall/lstm_model/lstm/zeros"], "attr": {"frame_name": {"s": "U3RhdGVmdWxQYXJ0aXRpb25lZENhbGwvbHN0bV9tb2RlbC9sc3RtL1BhcnRpdGlvbmVkQ2FsbC93aGlsZQ=="}, "is_constant": {"b": false}, "T": {"type": "DT_FLOAT"}, "parallel_iterations": {"i": "32"}}}, {"name": "StatefulPartitionedCall/lstm_model/lstm/PartitionedCall/MatMul_1", "op": "MatMul", "input": ["StatefulPartitionedCall/lstm_model/lstm/zeros", "StatefulPartitionedCall/lstm_model/lstm/Read_1/ReadVariableOp"], "device": "/device:CPU:0", "attr": {"transpose_a": {"b": false}, "transpose_b": {"b": false}, "T": {"type": "DT_FLOAT"}}}, {"name": "StatefulPartitionedCall/lstm_model/lstm/PartitionedCall/TensorArrayUnstack/TensorListFromTensor", "op": "TensorListFromTensor", "input": ["StatefulPartitionedCall/lstm_model/lstm/PartitionedCall/transpose", "StatefulPartitionedCall/lstm_model/lstm/PartitionedCall/TensorArrayUnstack/TensorListFromTensor/element_shape"], "attr": {"shape_type": {"type": "DT_INT32"}, "element_dtype": {"type": "DT_FLOAT"}}, "experimentalType": {"typeId": "TFT_PRODUCT", "args": [{"typeId": "TFT_ARRAY", "args": [{"typeId": "TFT_TENSOR", "args": [{"typeId": "TFT_FLOAT"}]}]}]}}, {"name": "StatefulPartitionedCall/lstm_model/lstm/PartitionedCall/strided_slice_1", "op": "StridedSlice", "input": ["StatefulPartitionedCall/lstm_model/lstm/PartitionedCall/transpose", "StatefulPartitionedCall/lstm_model/lstm/PartitionedCall/strided_slice_1/stack", "StatefulPartitionedCall/lstm_model/lstm/PartitionedCall/strided_slice_1/stack_1", "StatefulPartitionedCall/lstm_model/lstm/PartitionedCall/strided_slice_1/stack_2"], "attr": {"shrink_axis_mask": {"i": "1"}, "ellipsis_mask": {"i": "0"}, "new_axis_mask": {"i": "0"}, "begin_mask": {"i": "0"}, "Index": {"type": "DT_INT32"}, "T": {"type": "DT_FLOAT"}, "end_mask": {"i": "0"}}}, {"name": "StatefulPartitionedCall/lstm_model/lstm/PartitionedCall/Shape", "op": "Shape", "input": ["StatefulPartitionedCall/lstm_model/lstm/PartitionedCall/transpose"], "attr": {"T": {"type": "DT_FLOAT"}, "out_type": {"type": "DT_INT32"}}}, {"name": "StatefulPartitionedCall/lstm_model/lstm/PartitionedCall/while/merge/_72", "op": "Merge", "input": ["StatefulPartitionedCall/lstm_model/lstm/PartitionedCall/while/enter/_59", "StatefulPartitionedCall/lstm_model/lstm/PartitionedCall/while/next_iteration/_114"], "attr": {"N": {"i": "2"}, "T": {"type": "DT_FLOAT"}}}, {"name": "StatefulPartitionedCall/lstm_model/lstm/PartitionedCall/while/merge/_71", "op": "Merge", "input": ["StatefulPartitionedCall/lstm_model/lstm/PartitionedCall/while/enter/_58", "StatefulPartitionedCall/lstm_model/lstm/PartitionedCall/while/next_iteration/_113"], "attr": {"T": {"type": "DT_FLOAT"}, "N": {"i": "2"}}}, {"name": "StatefulPartitionedCall/lstm_model/lstm/PartitionedCall/while/enter/_61", "op": "Enter", "input": ["StatefulPartitionedCall/lstm_model/lstm/PartitionedCall/TensorArrayUnstack/TensorListFromTensor"], "attr": {"T": {"type": "DT_VARIANT"}, "is_constant": {"b": false}, "parallel_iterations": {"i": "32"}, "frame_name": {"s": "U3RhdGVmdWxQYXJ0aXRpb25lZENhbGwvbHN0bV9tb2RlbC9sc3RtL1BhcnRpdGlvbmVkQ2FsbC93aGlsZQ=="}}}, {"name": "StatefulPartitionedCall/lstm_model/lstm/PartitionedCall/MatMul", "op": "MatMul", "input": ["StatefulPartitionedCall/lstm_model/lstm/PartitionedCall/strided_slice_1", "StatefulPartitionedCall/lstm_model/lstm/Read/ReadVariableOp"], "device": "/device:CPU:0", "attr": {"transpose_a": {"b": false}, "transpose_b": {"b": false}, "T": {"type": "DT_FLOAT"}}}, {"name": "StatefulPartitionedCall/lstm_model/lstm/PartitionedCall/strided_slice", "op": "StridedSlice", "input": ["StatefulPartitionedCall/lstm_model/lstm/PartitionedCall/Shape", "StatefulPartitionedCall/lstm_model/lstm/PartitionedCall/strided_slice/stack", "StatefulPartitionedCall/lstm_model/lstm/PartitionedCall/strided_slice/stack_1", "StatefulPartitionedCall/lstm_model/lstm/PartitionedCall/strided_slice/stack_2"], "attr": {"T": {"type": "DT_INT32"}, "Index": {"type": "DT_INT32"}, "begin_mask": {"i": "0"}, "shrink_axis_mask": {"i": "1"}, "end_mask": {"i": "0"}, "ellipsis_mask": {"i": "0"}, "new_axis_mask": {"i": "0"}}}, {"name": "StatefulPartitionedCall/lstm_model/lstm/PartitionedCall/while/merge/_74", "op": "Merge", "input": ["StatefulPartitionedCall/lstm_model/lstm/PartitionedCall/while/enter/_61", "StatefulPartitionedCall/lstm_model/lstm/PartitionedCall/while/next_iteration/_116"], "attr": {"T": {"type": "DT_VARIANT"}, "N": {"i": "2"}}}, {"name": "StatefulPartitionedCall/lstm_model/lstm/PartitionedCall/add", "op": "AddV2", "input": ["StatefulPartitionedCall/lstm_model/lstm/PartitionedCall/MatMul", "StatefulPartitionedCall/lstm_model/lstm/PartitionedCall/MatMul_1"], "attr": {"T": {"type": "DT_FLOAT"}}}, {"name": "StatefulPartitionedCall/lstm_model/lstm/PartitionedCall/TensorArrayV2_1", "op": "TensorListReserve", "input": ["StatefulPartitionedCall/lstm_model/lstm/PartitionedCall/TensorArrayV2_1/element_shape", "StatefulPartitionedCall/lstm_model/lstm/PartitionedCall/strided_slice"], "attr": {"element_dtype": {"type": "DT_FLOAT"}, "shape_type": {"type": "DT_INT32"}}, "experimentalType": {"typeId": "TFT_PRODUCT", "args": [{"typeId": "TFT_ARRAY", "args": [{"typeId": "TFT_TENSOR", "args": [{"typeId": "TFT_FLOAT"}]}]}]}}, {"name": "StatefulPartitionedCall/lstm_model/lstm/PartitionedCall/while/enter/_60", "op": "Enter", "input": ["StatefulPartitionedCall/lstm_model/lstm/PartitionedCall/strided_slice"], "attr": {"parallel_iterations": {"i": "32"}, "is_constant": {"b": false}, "frame_name": {"s": "U3RhdGVmdWxQYXJ0aXRpb25lZENhbGwvbHN0bV9tb2RlbC9sc3RtL1BhcnRpdGlvbmVkQ2FsbC93aGlsZQ=="}, "T": {"type": "DT_INT32"}}}, {"name": "StatefulPartitionedCall/lstm_model/lstm/PartitionedCall/BiasAdd", "op": "BiasAdd", "input": ["StatefulPartitionedCall/lstm_model/lstm/PartitionedCall/add", "StatefulPartitionedCall/lstm_model/lstm/Read_2/ReadVariableOp"], "attr": {"data_format": {"s": "TkhXQw=="}, "T": {"type": "DT_FLOAT"}}}, {"name": "StatefulPartitionedCall/lstm_model/lstm/PartitionedCall/while/enter/_56", "op": "Enter", "input": ["StatefulPartitionedCall/lstm_model/lstm/PartitionedCall/TensorArrayV2_1"], "attr": {"frame_name": {"s": "U3RhdGVmdWxQYXJ0aXRpb25lZENhbGwvbHN0bV9tb2RlbC9sc3RtL1BhcnRpdGlvbmVkQ2FsbC93aGlsZQ=="}, "T": {"type": "DT_VARIANT"}, "parallel_iterations": {"i": "32"}, "is_constant": {"b": false}}}, {"name": "StatefulPartitionedCall/lstm_model/lstm/PartitionedCall/while/merge/_73", "op": "Merge", "input": ["StatefulPartitionedCall/lstm_model/lstm/PartitionedCall/while/enter/_60", "StatefulPartitionedCall/lstm_model/lstm/PartitionedCall/while/next_iteration/_115"], "attr": {"T": {"type": "DT_INT32"}, "N": {"i": "2"}}}, {"name": "StatefulPartitionedCall/lstm_model/lstm/PartitionedCall/split", "op": "Split", "input": ["StatefulPartitionedCall/lstm_model/lstm/PartitionedCall/split/split_dim", "StatefulPartitionedCall/lstm_model/lstm/PartitionedCall/BiasAdd"], "attr": {"T": {"type": "DT_FLOAT"}, "num_split": {"i": "4"}}}, {"name": "StatefulPartitionedCall/lstm_model/lstm/PartitionedCall/while/merge/_69", "op": "Merge", "input": ["StatefulPartitionedCall/lstm_model/lstm/PartitionedCall/while/enter/_56", "StatefulPartitionedCall/lstm_model/lstm/PartitionedCall/while/next_iteration/_111"], "attr": {"N": {"i": "2"}, "T": {"type": "DT_VARIANT"}}}, {"name": "StatefulPartitionedCall/lstm_model/lstm/PartitionedCall/while/cond/_51/while/Less", "op": "Less", "input": ["StatefulPartitionedCall/lstm_model/lstm/PartitionedCall/while/merge/_68", "StatefulPartitionedCall/lstm_model/lstm/PartitionedCall/while/merge/_73", "^StatefulPartitionedCall/lstm_model/lstm/PartitionedCall/while/merge/_66"], "attr": {"T": {"type": "DT_INT32"}}}, {"name": "StatefulPartitionedCall/lstm_model/lstm/PartitionedCall/Sigmoid", "op": "Sigmoid", "input": ["StatefulPartitionedCall/lstm_model/lstm/PartitionedCall/split"], "attr": {"T": {"type": "DT_FLOAT"}}}, {"name": "StatefulPartitionedCall/lstm_model/lstm/PartitionedCall/Sigmoid_1", "op": "Sigmoid", "input": ["StatefulPartitionedCall/lstm_model/lstm/PartitionedCall/split:1"], "attr": {"T": {"type": "DT_FLOAT"}}}, {"name": "StatefulPartitionedCall/lstm_model/lstm/PartitionedCall/Tanh", "op": "Tanh", "input": ["StatefulPartitionedCall/lstm_model/lstm/PartitionedCall/split:2"], "attr": {"T": {"type": "DT_FLOAT"}}}, {"name": "StatefulPartitionedCall/lstm_model/lstm/PartitionedCall/Sigmoid_2", "op": "Sigmoid", "input": ["StatefulPartitionedCall/lstm_model/lstm/PartitionedCall/split:3"], "attr": {"T": {"type": "DT_FLOAT"}}}, {"name": "StatefulPartitionedCall/lstm_model/lstm/PartitionedCall/while/LoopCond/_79", "op": "LoopCond", "input": ["StatefulPartitionedCall/lstm_model/lstm/PartitionedCall/while/cond/_51/while/Less"]}, {"name": "StatefulPartitionedCall/lstm_model/lstm/PartitionedCall/mul", "op": "Mul", "input": ["StatefulPartitionedCall/lstm_model/lstm/PartitionedCall/Sigmoid_1", "StatefulPartitionedCall/lstm_model/lstm/zeros_1"], "attr": {"T": {"type": "DT_FLOAT"}}}, {"name": "StatefulPartitionedCall/lstm_model/lstm/PartitionedCall/mul_1", "op": "Mul", "input": ["StatefulPartitionedCall/lstm_model/lstm/PartitionedCall/Sigmoid", "StatefulPartitionedCall/lstm_model/lstm/PartitionedCall/Tanh"], "attr": {"T": {"type": "DT_FLOAT"}}}, {"name": "StatefulPartitionedCall/lstm_model/lstm/PartitionedCall/while/Func/StatefulPartitionedCall/lstm_model/lstm/PartitionedCall/input/_17_switch/_86", "op": "Switch", "input": ["StatefulPartitionedCall/lstm_model/lstm/PartitionedCall/while/merge/_72", "StatefulPartitionedCall/lstm_model/lstm/PartitionedCall/while/LoopCond/_79"], "attr": {"T": {"type": "DT_FLOAT"}}}, {"name": "StatefulPartitionedCall/lstm_model/lstm/PartitionedCall/while/StatefulPartitionedCall/lstm_model/lstm/PartitionedCall/TensorArrayUnstack/TensorListFromTensor_switch/_88", "op": "Switch", "input": ["StatefulPartitionedCall/lstm_model/lstm/PartitionedCall/while/merge/_74", "StatefulPartitionedCall/lstm_model/lstm/PartitionedCall/while/LoopCond/_79"], "attr": {"T": {"type": "DT_VARIANT"}}}, {"name": "StatefulPartitionedCall/lstm_model/lstm/PartitionedCall/while/Func/StatefulPartitionedCall/lstm_model/lstm/PartitionedCall/input/_18_switch/_90", "op": "Switch", "input": ["StatefulPartitionedCall/lstm_model/lstm/PartitionedCall/while/merge/_76", "StatefulPartitionedCall/lstm_model/lstm/PartitionedCall/while/LoopCond/_79"], "attr": {"T": {"type": "DT_FLOAT"}}}, {"name": "StatefulPartitionedCall/lstm_model/lstm/PartitionedCall/while/StatefulPartitionedCall/lstm_model/lstm/PartitionedCall/TensorArrayUnstack_1/TensorListFromTensor_switch/_89", "op": "Switch", "input": ["StatefulPartitionedCall/lstm_model/lstm/PartitionedCall/while/merge/_75", "StatefulPartitionedCall/lstm_model/lstm/PartitionedCall/while/LoopCond/_79"], "attr": {"T": {"type": "DT_VARIANT"}}}, {"name": "StatefulPartitionedCall/lstm_model/lstm/PartitionedCall/while/Func/StatefulPartitionedCall/lstm_model/lstm/PartitionedCall/input/_16_switch/_85", "op": "Switch", "input": ["StatefulPartitionedCall/lstm_model/lstm/PartitionedCall/while/merge/_71", "StatefulPartitionedCall/lstm_model/lstm/PartitionedCall/while/LoopCond/_79"], "attr": {"T": {"type": "DT_FLOAT"}}}, {"name": "StatefulPartitionedCall/lstm_model/lstm/PartitionedCall/while/Func/StatefulPartitionedCall/lstm_model/lstm/PartitionedCall/input/_19_switch/_91", "op": "Switch", "input": ["StatefulPartitionedCall/lstm_model/lstm/PartitionedCall/while/merge/_77", "StatefulPartitionedCall/lstm_model/lstm/PartitionedCall/while/LoopCond/_79"], "attr": {"T": {"type": "DT_FLOAT"}}}, {"name": "StatefulPartitionedCall/lstm_model/lstm/PartitionedCall/while/Func/StatefulPartitionedCall/lstm_model/lstm/PartitionedCall/input/_20_switch/_92", "op": "Switch", "input": ["StatefulPartitionedCall/lstm_model/lstm/PartitionedCall/while/merge/_78", "StatefulPartitionedCall/lstm_model/lstm/PartitionedCall/while/LoopCond/_79"], "attr": {"T": {"type": "DT_FLOAT"}}}, {"name": "StatefulPartitionedCall/lstm_model/lstm/PartitionedCall/while/StatefulPartitionedCall/lstm_model/lstm/PartitionedCall/time_switch/_82", "op": "Switch", "input": ["StatefulPartitionedCall/lstm_model/lstm/PartitionedCall/while/merge/_68", "StatefulPartitionedCall/lstm_model/lstm/PartitionedCall/while/LoopCond/_79"], "attr": {"T": {"type": "DT_INT32"}}}, {"name": "StatefulPartitionedCall/lstm_model/lstm/PartitionedCall/while/StatefulPartitionedCall/lstm_model/lstm/PartitionedCall/while/loop_counter_switch/_80", "op": "Switch", "input": ["StatefulPartitionedCall/lstm_model/lstm/PartitionedCall/while/merge/_66", "StatefulPartitionedCall/lstm_model/lstm/PartitionedCall/while/LoopCond/_79"], "attr": {"T": {"type": "DT_INT32"}}}, {"name": "StatefulPartitionedCall/lstm_model/lstm/PartitionedCall/while/StatefulPartitionedCall/lstm_model/lstm/PartitionedCall/TensorArrayV2_1_switch/_83", "op": "Switch", "input": ["StatefulPartitionedCall/lstm_model/lstm/PartitionedCall/while/merge/_69", "StatefulPartitionedCall/lstm_model/lstm/PartitionedCall/while/LoopCond/_79"], "attr": {"T": {"type": "DT_VARIANT"}}}, {"name": "StatefulPartitionedCall/lstm_model/lstm/PartitionedCall/while/StatefulPartitionedCall/lstm_model/lstm/PartitionedCall/strided_slice_switch/_87", "op": "Switch", "input": ["StatefulPartitionedCall/lstm_model/lstm/PartitionedCall/while/merge/_73", "StatefulPartitionedCall/lstm_model/lstm/PartitionedCall/while/LoopCond/_79"], "attr": {"T": {"type": "DT_INT32"}}}, {"name": "StatefulPartitionedCall/lstm_model/lstm/PartitionedCall/add_1", "op": "AddV2", "input": ["StatefulPartitionedCall/lstm_model/lstm/PartitionedCall/mul", "StatefulPartitionedCall/lstm_model/lstm/PartitionedCall/mul_1"], "attr": {"T": {"type": "DT_FLOAT"}}}, {"name": "StatefulPartitionedCall/lstm_model/lstm/PartitionedCall/while/loop_body_control/_93", "op": "Identity", "input": ["StatefulPartitionedCall/lstm_model/lstm/PartitionedCall/while/StatefulPartitionedCall/lstm_model/lstm/PartitionedCall/while/loop_counter_switch/_80:1"], "attr": {"T": {"type": "DT_INT32"}}}, {"name": "StatefulPartitionedCall/lstm_model/lstm/PartitionedCall/while/exit/_97", "op": "Exit", "input": ["StatefulPartitionedCall/lstm_model/lstm/PartitionedCall/while/StatefulPartitionedCall/lstm_model/lstm/PartitionedCall/TensorArrayV2_1_switch/_83"], "attr": {"T": {"type": "DT_VARIANT"}}}, {"name": "StatefulPartitionedCall/lstm_model/lstm/PartitionedCall/Tanh_1", "op": "Tanh", "input": ["StatefulPartitionedCall/lstm_model/lstm/PartitionedCall/add_1"], "attr": {"T": {"type": "DT_FLOAT"}}}, {"name": "StatefulPartitionedCall/lstm_model/lstm/PartitionedCall/while/body/_52/while/split/split_dim", "op": "Const", "input": ["^StatefulPartitionedCall/lstm_model/lstm/PartitionedCall/while/loop_body_control/_93"], "attr": {"dtype": {"type": "DT_INT32"}, "value": {"tensor": {"dtype": "DT_INT32", "tensorShape": {}}}}}, {"name": "StatefulPartitionedCall/lstm_model/lstm/PartitionedCall/while/next_iteration/_116", "op": "NextIteration", "input": ["StatefulPartitionedCall/lstm_model/lstm/PartitionedCall/while/StatefulPartitionedCall/lstm_model/lstm/PartitionedCall/TensorArrayUnstack/TensorListFromTensor_switch/_88:1", "^StatefulPartitionedCall/lstm_model/lstm/PartitionedCall/while/loop_body_control/_93"], "attr": {"T": {"type": "DT_VARIANT"}}}, {"name": "StatefulPartitionedCall/lstm_model/lstm/PartitionedCall/while/body/_52/while/TensorArrayV2Read/TensorListGetItem/element_shape", "op": "Const", "input": ["^StatefulPartitionedCall/lstm_model/lstm/PartitionedCall/while/loop_body_control/_93"], "attr": {"value": {"tensor": {"dtype": "DT_INT32", "tensorShape": {"dim": [{"size": "2"}]}}}, "dtype": {"type": "DT_INT32"}}}, {"name": "StatefulPartitionedCall/lstm_model/lstm/PartitionedCall/while/next_iteration/_118", "op": "NextIteration", "input": ["StatefulPartitionedCall/lstm_model/lstm/PartitionedCall/while/Func/StatefulPartitionedCall/lstm_model/lstm/PartitionedCall/input/_18_switch/_90:1", "^StatefulPartitionedCall/lstm_model/lstm/PartitionedCall/while/loop_body_control/_93"], "attr": {"T": {"type": "DT_FLOAT"}}}, {"name": "StatefulPartitionedCall/lstm_model/lstm/PartitionedCall/while/next_iteration/_117", "op": "NextIteration", "input": ["StatefulPartitionedCall/lstm_model/lstm/PartitionedCall/while/StatefulPartitionedCall/lstm_model/lstm/PartitionedCall/TensorArrayUnstack_1/TensorListFromTensor_switch/_89:1", "^StatefulPartitionedCall/lstm_model/lstm/PartitionedCall/while/loop_body_control/_93"], "attr": {"T": {"type": "DT_VARIANT"}}}, {"name": "StatefulPartitionedCall/lstm_model/lstm/PartitionedCall/while/body/_52/while/TensorArrayV2Read_1/TensorListGetItem/element_shape", "op": "Const", "input": ["^StatefulPartitionedCall/lstm_model/lstm/PartitionedCall/while/loop_body_control/_93"], "attr": {"dtype": {"type": "DT_INT32"}, "value": {"tensor": {"dtype": "DT_INT32", "tensorShape": {"dim": [{"size": "2"}]}}}}}, {"name": "StatefulPartitionedCall/lstm_model/lstm/PartitionedCall/while/next_iteration/_119", "op": "NextIteration", "input": ["StatefulPartitionedCall/lstm_model/lstm/PartitionedCall/while/Func/StatefulPartitionedCall/lstm_model/lstm/PartitionedCall/input/_19_switch/_91:1", "^StatefulPartitionedCall/lstm_model/lstm/PartitionedCall/while/loop_body_control/_93"], "attr": {"T": {"type": "DT_FLOAT"}}}, {"name": "StatefulPartitionedCall/lstm_model/lstm/PartitionedCall/while/body/_52/while/MatMul_1", "op": "MatMul", "input": ["StatefulPartitionedCall/lstm_model/lstm/PartitionedCall/while/Func/StatefulPartitionedCall/lstm_model/lstm/PartitionedCall/input/_16_switch/_85:1", "StatefulPartitionedCall/lstm_model/lstm/PartitionedCall/while/Func/StatefulPartitionedCall/lstm_model/lstm/PartitionedCall/input/_19_switch/_91:1", "^StatefulPartitionedCall/lstm_model/lstm/PartitionedCall/while/loop_body_control/_93"], "device": "/device:CPU:0", "attr": {"transpose_a": {"b": false}, "T": {"type": "DT_FLOAT"}, "transpose_b": {"b": false}}}, {"name": "StatefulPartitionedCall/lstm_model/lstm/PartitionedCall/while/next_iteration/_120", "op": "NextIteration", "input": ["StatefulPartitionedCall/lstm_model/lstm/PartitionedCall/while/Func/StatefulPartitionedCall/lstm_model/lstm/PartitionedCall/input/_20_switch/_92:1", "^StatefulPartitionedCall/lstm_model/lstm/PartitionedCall/while/loop_body_control/_93"], "attr": {"T": {"type": "DT_FLOAT"}}}, {"name": "Func/StatefulPartitionedCall/lstm_model/lstm/PartitionedCall/while/body/_52/input/_279", "op": "Identity", "input": ["StatefulPartitionedCall/lstm_model/lstm/PartitionedCall/while/StatefulPartitionedCall/lstm_model/lstm/PartitionedCall/time_switch/_82:1", "^StatefulPartitionedCall/lstm_model/lstm/PartitionedCall/while/loop_body_control/_93"], "attr": {"T": {"type": "DT_INT32"}}}, {"name": "StatefulPartitionedCall/lstm_model/lstm/PartitionedCall/while/body/_52/while/add_2/y", "op": "Const", "input": ["^StatefulPartitionedCall/lstm_model/lstm/PartitionedCall/while/loop_body_control/_93"], "attr": {"dtype": {"type": "DT_INT32"}, "value": {"tensor": {"dtype": "DT_INT32", "tensorShape": {}}}}}, {"name": "StatefulPartitionedCall/lstm_model/lstm/PartitionedCall/while/body/_52/while/add_3/y", "op": "Const", "input": ["^StatefulPartitionedCall/lstm_model/lstm/PartitionedCall/while/loop_body_control/_93"], "attr": {"value": {"tensor": {"dtype": "DT_INT32", "tensorShape": {}}}, "dtype": {"type": "DT_INT32"}}}, {"name": "StatefulPartitionedCall/lstm_model/lstm/PartitionedCall/while/next_iteration/_115", "op": "NextIteration", "input": ["StatefulPartitionedCall/lstm_model/lstm/PartitionedCall/while/StatefulPartitionedCall/lstm_model/lstm/PartitionedCall/strided_slice_switch/_87:1", "^StatefulPartitionedCall/lstm_model/lstm/PartitionedCall/while/loop_body_control/_93"], "attr": {"T": {"type": "DT_INT32"}}}, {"name": "StatefulPartitionedCall/lstm_model/lstm/PartitionedCall/TensorArrayV2Stack/TensorListStack", "op": "TensorListStack", "input": ["StatefulPartitionedCall/lstm_model/lstm/PartitionedCall/while/exit/_97", "StatefulPartitionedCall/lstm_model/lstm/PartitionedCall/TensorArrayV2Stack/TensorListStack/element_shape"], "attr": {"num_elements": {"i": "-1"}, "element_dtype": {"type": "DT_FLOAT"}}}, {"name": "StatefulPartitionedCall/lstm_model/lstm/PartitionedCall/mul_2", "op": "Mul", "input": ["StatefulPartitionedCall/lstm_model/lstm/PartitionedCall/Sigmoid_2", "StatefulPartitionedCall/lstm_model/lstm/PartitionedCall/Tanh_1"], "attr": {"T": {"type": "DT_FLOAT"}}}, {"name": "StatefulPartitionedCall/lstm_model/lstm/PartitionedCall/while/body/_52/while/TensorArrayV2Read/TensorListGetItem", "op": "TensorListGetItem", "input": ["StatefulPartitionedCall/lstm_model/lstm/PartitionedCall/while/StatefulPartitionedCall/lstm_model/lstm/PartitionedCall/TensorArrayUnstack/TensorListFromTensor_switch/_88:1", "Func/StatefulPartitionedCall/lstm_model/lstm/PartitionedCall/while/body/_52/input/_279", "StatefulPartitionedCall/lstm_model/lstm/PartitionedCall/while/body/_52/while/TensorArrayV2Read/TensorListGetItem/element_shape"], "attr": {"element_dtype": {"type": "DT_FLOAT"}}}, {"name": "StatefulPartitionedCall/lstm_model/lstm/PartitionedCall/while/body/_52/while/TensorArrayV2Read_1/TensorListGetItem", "op": "TensorListGetItem", "input": ["StatefulPartitionedCall/lstm_model/lstm/PartitionedCall/while/StatefulPartitionedCall/lstm_model/lstm/PartitionedCall/TensorArrayUnstack_1/TensorListFromTensor_switch/_89:1", "Func/StatefulPartitionedCall/lstm_model/lstm/PartitionedCall/while/body/_52/input/_279", "StatefulPartitionedCall/lstm_model/lstm/PartitionedCall/while/body/_52/while/TensorArrayV2Read_1/TensorListGetItem/element_shape"], "attr": {"element_dtype": {"type": "DT_BOOL"}}}, {"name": "StatefulPartitionedCall/lstm_model/lstm/PartitionedCall/while/body/_52/while/add_2", "op": "AddV2", "input": ["Func/StatefulPartitionedCall/lstm_model/lstm/PartitionedCall/while/body/_52/input/_279", "StatefulPartitionedCall/lstm_model/lstm/PartitionedCall/while/body/_52/while/add_2/y"], "attr": {"T": {"type": "DT_INT32"}}}, {"name": "StatefulPartitionedCall/lstm_model/lstm/PartitionedCall/while/body/_52/while/add_3", "op": "AddV2", "input": ["StatefulPartitionedCall/lstm_model/lstm/PartitionedCall/while/StatefulPartitionedCall/lstm_model/lstm/PartitionedCall/while/loop_counter_switch/_80:1", "StatefulPartitionedCall/lstm_model/lstm/PartitionedCall/while/body/_52/while/add_3/y"], "attr": {"T": {"type": "DT_INT32"}}}, {"name": "StatefulPartitionedCall/lstm_model/lstm/PartitionedCall/transpose_2", "op": "Transpose", "input": ["StatefulPartitionedCall/lstm_model/lstm/PartitionedCall/TensorArrayV2Stack/TensorListStack", "StatefulPartitionedCall/lstm_model/lstm/PartitionedCall/transpose_2/perm"], "attr": {"T": {"type": "DT_FLOAT"}, "Tperm": {"type": "DT_INT32"}}}, {"name": "StatefulPartitionedCall/lstm_model/lstm/PartitionedCall/zeros_like", "op": "ZerosLike", "input": ["StatefulPartitionedCall/lstm_model/lstm/PartitionedCall/mul_2"], "attr": {"T": {"type": "DT_FLOAT"}}}, {"name": "StatefulPartitionedCall/lstm_model/lstm/PartitionedCall/while/body/_52/while/MatMul", "op": "MatMul", "input": ["StatefulPartitionedCall/lstm_model/lstm/PartitionedCall/while/body/_52/while/TensorArrayV2Read/TensorListGetItem", "StatefulPartitionedCall/lstm_model/lstm/PartitionedCall/while/Func/StatefulPartitionedCall/lstm_model/lstm/PartitionedCall/input/_18_switch/_90:1"], "device": "/device:CPU:0", "attr": {"transpose_a": {"b": false}, "T": {"type": "DT_FLOAT"}, "transpose_b": {"b": false}}}, {"name": "StatefulPartitionedCall/lstm_model/lstm/PartitionedCall/while/next_iteration/_110", "op": "NextIteration", "input": ["StatefulPartitionedCall/lstm_model/lstm/PartitionedCall/while/body/_52/while/add_2", "^StatefulPartitionedCall/lstm_model/lstm/PartitionedCall/while/loop_body_control/_93"], "attr": {"T": {"type": "DT_INT32"}}}, {"name": "StatefulPartitionedCall/lstm_model/lstm/PartitionedCall/while/next_iteration/_108", "op": "NextIteration", "input": ["StatefulPartitionedCall/lstm_model/lstm/PartitionedCall/while/body/_52/while/add_3", "^StatefulPartitionedCall/lstm_model/lstm/PartitionedCall/while/loop_body_control/_93"], "attr": {"T": {"type": "DT_INT32"}}}, {"name": "StatefulPartitionedCall/lstm_model/lstm_1/Shape", "op": "Shape", "input": ["StatefulPartitionedCall/lstm_model/lstm/PartitionedCall/transpose_2"], "attr": {"T": {"type": "DT_FLOAT"}, "out_type": {"type": "DT_INT32"}}}, {"name": "StatefulPartitionedCall/lstm_model/lstm_1/mul", "op": "Identity", "input": ["StatefulPartitionedCall/lstm_model/lstm/PartitionedCall/TensorArrayV2Stack/TensorListStack", "^StatefulPartitionedCall/lstm_model/lstm/PartitionedCall/transpose_2"], "attr": {"T": {"type": "DT_FLOAT"}}}, {"name": "StatefulPartitionedCall/lstm_model/lstm/PartitionedCall/while/enter/_57", "op": "Enter", "input": ["StatefulPartitionedCall/lstm_model/lstm/PartitionedCall/zeros_like"], "attr": {"parallel_iterations": {"i": "32"}, "frame_name": {"s": "U3RhdGVmdWxQYXJ0aXRpb25lZENhbGwvbHN0bV9tb2RlbC9sc3RtL1BhcnRpdGlvbmVkQ2FsbC93aGlsZQ=="}, "T": {"type": "DT_FLOAT"}, "is_constant": {"b": false}}}, {"name": "StatefulPartitionedCall/lstm_model/lstm/PartitionedCall/while/body/_52/while/add", "op": "AddV2", "input": ["StatefulPartitionedCall/lstm_model/lstm/PartitionedCall/while/body/_52/while/MatMul", "StatefulPartitionedCall/lstm_model/lstm/PartitionedCall/while/body/_52/while/MatMul_1"], "attr": {"T": {"type": "DT_FLOAT"}}}, {"name": "StatefulPartitionedCall/lstm_model/lstm_1/strided_slice", "op": "StridedSlice", "input": ["StatefulPartitionedCall/lstm_model/lstm_1/Shape", "StatefulPartitionedCall/lstm_model/lstm_1/strided_slice/stack", "StatefulPartitionedCall/lstm_model/lstm_1/strided_slice/stack_1", "StatefulPartitionedCall/lstm_model/lstm_1/strided_slice/stack_2"], "attr": {"begin_mask": {"i": "0"}, "Index": {"type": "DT_INT32"}, "new_axis_mask": {"i": "0"}, "ellipsis_mask": {"i": "0"}, "T": {"type": "DT_INT32"}, "shrink_axis_mask": {"i": "1"}, "end_mask": {"i": "0"}}}, {"name": "StatefulPartitionedCall/lstm_model/lstm_1/PartitionedCall/TensorArrayUnstack/TensorListFromTensor", "op": "TensorListFromTensor", "input": ["StatefulPartitionedCall/lstm_model/lstm_1/mul", "StatefulPartitionedCall/lstm_model/lstm_1/PartitionedCall/TensorArrayUnstack/TensorListFromTensor/element_shape"], "attr": {"element_dtype": {"type": "DT_FLOAT"}, "shape_type": {"type": "DT_INT32"}}, "experimentalType": {"typeId": "TFT_PRODUCT", "args": [{"typeId": "TFT_ARRAY", "args": [{"typeId": "TFT_TENSOR", "args": [{"typeId": "TFT_FLOAT"}]}]}]}}, {"name": "StatefulPartitionedCall/lstm_model/lstm_1/PartitionedCall/strided_slice_1", "op": "StridedSlice", "input": ["StatefulPartitionedCall/lstm_model/lstm_1/mul", "StatefulPartitionedCall/lstm_model/lstm_1/PartitionedCall/strided_slice_1/stack", "StatefulPartitionedCall/lstm_model/lstm_1/PartitionedCall/strided_slice_1/stack_1", "StatefulPartitionedCall/lstm_model/lstm_1/PartitionedCall/strided_slice_1/stack_2"], "attr": {"Index": {"type": "DT_INT32"}, "shrink_axis_mask": {"i": "1"}, "new_axis_mask": {"i": "0"}, "begin_mask": {"i": "0"}, "T": {"type": "DT_FLOAT"}, "ellipsis_mask": {"i": "0"}, "end_mask": {"i": "0"}}}, {"name": "StatefulPartitionedCall/lstm_model/lstm_1/PartitionedCall/Shape", "op": "Shape", "input": ["StatefulPartitionedCall/lstm_model/lstm_1/mul"], "attr": {"out_type": {"type": "DT_INT32"}, "T": {"type": "DT_FLOAT"}}}, {"name": "StatefulPartitionedCall/lstm_model/lstm/PartitionedCall/while/merge/_70", "op": "Merge", "input": ["StatefulPartitionedCall/lstm_model/lstm/PartitionedCall/while/enter/_57", "StatefulPartitionedCall/lstm_model/lstm/PartitionedCall/while/next_iteration/_112"], "attr": {"T": {"type": "DT_FLOAT"}, "N": {"i": "2"}}}, {"name": "StatefulPartitionedCall/lstm_model/lstm/PartitionedCall/while/body/_52/while/BiasAdd", "op": "BiasAdd", "input": ["StatefulPartitionedCall/lstm_model/lstm/PartitionedCall/while/body/_52/while/add", "StatefulPartitionedCall/lstm_model/lstm/PartitionedCall/while/Func/StatefulPartitionedCall/lstm_model/lstm/PartitionedCall/input/_20_switch/_92:1"], "attr": {"T": {"type": "DT_FLOAT"}, "data_format": {"s": "TkhXQw=="}}}, {"name": "StatefulPartitionedCall/lstm_model/lstm_1/zeros_1/packed", "op": "Pack", "input": ["StatefulPartitionedCall/lstm_model/lstm_1/strided_slice", "StatefulPartitionedCall/lstm_model/lstm_1/zeros_1/packed/1"], "attr": {"axis": {"i": "0"}, "T": {"type": "DT_INT32"}, "N": {"i": "2"}}}, {"name": "StatefulPartitionedCall/lstm_model/lstm_1/zeros/packed", "op": "Pack", "input": ["StatefulPartitionedCall/lstm_model/lstm_1/strided_slice", "StatefulPartitionedCall/lstm_model/lstm_1/zeros/packed/1"], "attr": {"T": {"type": "DT_INT32"}, "axis": {"i": "0"}, "N": {"i": "2"}}}, {"name": "StatefulPartitionedCall/lstm_model/lstm_1/PartitionedCall/while/enter/_131", "op": "Enter", "input": ["StatefulPartitionedCall/lstm_model/lstm_1/PartitionedCall/TensorArrayUnstack/TensorListFromTensor"], "attr": {"T": {"type": "DT_VARIANT"}, "frame_name": {"s": "U3RhdGVmdWxQYXJ0aXRpb25lZENhbGwvbHN0bV9tb2RlbC9sc3RtXzEvUGFydGl0aW9uZWRDYWxsL3doaWxl"}, "is_constant": {"b": false}, "parallel_iterations": {"i": "32"}}}, {"name": "StatefulPartitionedCall/lstm_model/lstm_1/PartitionedCall/MatMul", "op": "MatMul", "input": ["StatefulPartitionedCall/lstm_model/lstm_1/PartitionedCall/strided_slice_1", "StatefulPartitionedCall/lstm_model/lstm_1/Read/ReadVariableOp"], "device": "/device:CPU:0", "attr": {"T": {"type": "DT_FLOAT"}, "transpose_b": {"b": false}, "transpose_a": {"b": false}}}, {"name": "StatefulPartitionedCall/lstm_model/lstm_1/PartitionedCall/strided_slice", "op": "StridedSlice", "input": ["StatefulPartitionedCall/lstm_model/lstm_1/PartitionedCall/Shape", "StatefulPartitionedCall/lstm_model/lstm_1/PartitionedCall/strided_slice/stack", "StatefulPartitionedCall/lstm_model/lstm_1/PartitionedCall/strided_slice/stack_1", "StatefulPartitionedCall/lstm_model/lstm_1/PartitionedCall/strided_slice/stack_2"], "attr": {"Index": {"type": "DT_INT32"}, "T": {"type": "DT_INT32"}, "end_mask": {"i": "0"}, "new_axis_mask": {"i": "0"}, "begin_mask": {"i": "0"}, "shrink_axis_mask": {"i": "1"}, "ellipsis_mask": {"i": "0"}}}, {"name": "StatefulPartitionedCall/lstm_model/lstm/PartitionedCall/while/StatefulPartitionedCall/lstm_model/lstm/PartitionedCall/zeros_like_switch/_84", "op": "Switch", "input": ["StatefulPartitionedCall/lstm_model/lstm/PartitionedCall/while/merge/_70", "StatefulPartitionedCall/lstm_model/lstm/PartitionedCall/while/LoopCond/_79"], "attr": {"T": {"type": "DT_FLOAT"}}}, {"name": "StatefulPartitionedCall/lstm_model/lstm/PartitionedCall/while/body/_52/while/split", "op": "Split", "input": ["StatefulPartitionedCall/lstm_model/lstm/PartitionedCall/while/body/_52/while/split/split_dim", "StatefulPartitionedCall/lstm_model/lstm/PartitionedCall/while/body/_52/while/BiasAdd"], "attr": {"num_split": {"i": "4"}, "T": {"type": "DT_FLOAT"}}}, {"name": "StatefulPartitionedCall/lstm_model/lstm_1/zeros_1", "op": "Fill", "input": ["StatefulPartitionedCall/lstm_model/lstm_1/zeros_1/packed", "StatefulPartitionedCall/lstm_model/lstm_1/zeros_1/Const"], "attr": {"T": {"type": "DT_FLOAT"}, "index_type": {"type": "DT_INT32"}}}, {"name": "StatefulPartitionedCall/lstm_model/lstm_1/zeros", "op": "Fill", "input": ["StatefulPartitionedCall/lstm_model/lstm_1/zeros/packed", "StatefulPartitionedCall/lstm_model/lstm_1/zeros/Const"], "attr": {"T": {"type": "DT_FLOAT"}, "index_type": {"type": "DT_INT32"}}}, {"name": "StatefulPartitionedCall/lstm_model/lstm_1/PartitionedCall/while/merge/_144", "op": "Merge", "input": ["StatefulPartitionedCall/lstm_model/lstm_1/PartitionedCall/while/enter/_131", "StatefulPartitionedCall/lstm_model/lstm_1/PartitionedCall/while/next_iteration/_186"], "attr": {"N": {"i": "2"}, "T": {"type": "DT_VARIANT"}}}, {"name": "StatefulPartitionedCall/lstm_model/lstm_1/PartitionedCall/TensorArrayV2_1", "op": "TensorListReserve", "input": ["StatefulPartitionedCall/lstm_model/lstm_1/PartitionedCall/TensorArrayV2_1/element_shape", "StatefulPartitionedCall/lstm_model/lstm_1/PartitionedCall/strided_slice"], "attr": {"element_dtype": {"type": "DT_FLOAT"}, "shape_type": {"type": "DT_INT32"}}, "experimentalType": {"typeId": "TFT_PRODUCT", "args": [{"typeId": "TFT_ARRAY", "args": [{"typeId": "TFT_TENSOR", "args": [{"typeId": "TFT_FLOAT"}]}]}]}}, {"name": "StatefulPartitionedCall/lstm_model/lstm_1/PartitionedCall/while/enter/_130", "op": "Enter", "input": ["StatefulPartitionedCall/lstm_model/lstm_1/PartitionedCall/strided_slice"], "attr": {"is_constant": {"b": false}, "T": {"type": "DT_INT32"}, "frame_name": {"s": "U3RhdGVmdWxQYXJ0aXRpb25lZENhbGwvbHN0bV9tb2RlbC9sc3RtXzEvUGFydGl0aW9uZWRDYWxsL3doaWxl"}, "parallel_iterations": {"i": "32"}}}, {"name": "StatefulPartitionedCall/lstm_model/lstm/PartitionedCall/while/body/_52/while/Sigmoid", "op": "Sigmoid", "input": ["StatefulPartitionedCall/lstm_model/lstm/PartitionedCall/while/body/_52/while/split"], "attr": {"T": {"type": "DT_FLOAT"}}}, {"name": "StatefulPartitionedCall/lstm_model/lstm/PartitionedCall/while/body/_52/while/Sigmoid_1", "op": "Sigmoid", "input": ["StatefulPartitionedCall/lstm_model/lstm/PartitionedCall/while/body/_52/while/split:1"], "attr": {"T": {"type": "DT_FLOAT"}}}, {"name": "StatefulPartitionedCall/lstm_model/lstm/PartitionedCall/while/body/_52/while/Tanh", "op": "Tanh", "input": ["StatefulPartitionedCall/lstm_model/lstm/PartitionedCall/while/body/_52/while/split:2"], "attr": {"T": {"type": "DT_FLOAT"}}}, {"name": "StatefulPartitionedCall/lstm_model/lstm/PartitionedCall/while/body/_52/while/Sigmoid_2", "op": "Sigmoid", "input": ["StatefulPartitionedCall/lstm_model/lstm/PartitionedCall/while/body/_52/while/split:3"], "attr": {"T": {"type": "DT_FLOAT"}}}, {"name": "StatefulPartitionedCall/lstm_model/lstm_1/PartitionedCall/while/enter/_129", "op": "Enter", "input": ["StatefulPartitionedCall/lstm_model/lstm_1/zeros_1"], "attr": {"is_constant": {"b": false}, "parallel_iterations": {"i": "32"}, "T": {"type": "DT_FLOAT"}, "frame_name": {"s": "U3RhdGVmdWxQYXJ0aXRpb25lZENhbGwvbHN0bV9tb2RlbC9sc3RtXzEvUGFydGl0aW9uZWRDYWxsL3doaWxl"}}}, {"name": "StatefulPartitionedCall/lstm_model/lstm_1/PartitionedCall/while/enter/_128", "op": "Enter", "input": ["StatefulPartitionedCall/lstm_model/lstm_1/zeros"], "attr": {"T": {"type": "DT_FLOAT"}, "is_constant": {"b": false}, "frame_name": {"s": "U3RhdGVmdWxQYXJ0aXRpb25lZENhbGwvbHN0bV9tb2RlbC9sc3RtXzEvUGFydGl0aW9uZWRDYWxsL3doaWxl"}, "parallel_iterations": {"i": "32"}}}, {"name": "StatefulPartitionedCall/lstm_model/lstm_1/PartitionedCall/MatMul_1", "op": "MatMul", "input": ["StatefulPartitionedCall/lstm_model/lstm_1/zeros", "StatefulPartitionedCall/lstm_model/lstm_1/Read_1/ReadVariableOp"], "device": "/device:CPU:0", "attr": {"transpose_b": {"b": false}, "transpose_a": {"b": false}, "T": {"type": "DT_FLOAT"}}}, {"name": "StatefulPartitionedCall/lstm_model/lstm_1/PartitionedCall/while/enter/_126", "op": "Enter", "input": ["StatefulPartitionedCall/lstm_model/lstm_1/PartitionedCall/TensorArrayV2_1"], "attr": {"frame_name": {"s": "U3RhdGVmdWxQYXJ0aXRpb25lZENhbGwvbHN0bV9tb2RlbC9sc3RtXzEvUGFydGl0aW9uZWRDYWxsL3doaWxl"}, "T": {"type": "DT_VARIANT"}, "is_constant": {"b": false}, "parallel_iterations": {"i": "32"}}}, {"name": "StatefulPartitionedCall/lstm_model/lstm_1/PartitionedCall/while/merge/_143", "op": "Merge", "input": ["StatefulPartitionedCall/lstm_model/lstm_1/PartitionedCall/while/enter/_130", "StatefulPartitionedCall/lstm_model/lstm_1/PartitionedCall/while/next_iteration/_185"], "attr": {"T": {"type": "DT_INT32"}, "N": {"i": "2"}}}, {"name": "StatefulPartitionedCall/lstm_model/lstm/PartitionedCall/while/body/_52/while/mul", "op": "Mul", "input": ["StatefulPartitionedCall/lstm_model/lstm/PartitionedCall/while/body/_52/while/Sigmoid_1", "StatefulPartitionedCall/lstm_model/lstm/PartitionedCall/while/Func/StatefulPartitionedCall/lstm_model/lstm/PartitionedCall/input/_17_switch/_86:1"], "attr": {"T": {"type": "DT_FLOAT"}}}, {"name": "StatefulPartitionedCall/lstm_model/lstm/PartitionedCall/while/body/_52/while/mul_1", "op": "Mul", "input": ["StatefulPartitionedCall/lstm_model/lstm/PartitionedCall/while/body/_52/while/Sigmoid", "StatefulPartitionedCall/lstm_model/lstm/PartitionedCall/while/body/_52/while/Tanh"], "attr": {"T": {"type": "DT_FLOAT"}}}, {"name": "StatefulPartitionedCall/lstm_model/lstm_1/PartitionedCall/while/merge/_142", "op": "Merge", "input": ["StatefulPartitionedCall/lstm_model/lstm_1/PartitionedCall/while/enter/_129", "StatefulPartitionedCall/lstm_model/lstm_1/PartitionedCall/while/next_iteration/_184"], "attr": {"N": {"i": "2"}, "T": {"type": "DT_FLOAT"}}}, {"name": "StatefulPartitionedCall/lstm_model/lstm_1/PartitionedCall/while/merge/_141", "op": "Merge", "input": ["StatefulPartitionedCall/lstm_model/lstm_1/PartitionedCall/while/enter/_128", "StatefulPartitionedCall/lstm_model/lstm_1/PartitionedCall/while/next_iteration/_183"], "attr": {"N": {"i": "2"}, "T": {"type": "DT_FLOAT"}}}, {"name": "StatefulPartitionedCall/lstm_model/lstm_1/PartitionedCall/add", "op": "AddV2", "input": ["StatefulPartitionedCall/lstm_model/lstm_1/PartitionedCall/MatMul", "StatefulPartitionedCall/lstm_model/lstm_1/PartitionedCall/MatMul_1"], "attr": {"T": {"type": "DT_FLOAT"}}}, {"name": "StatefulPartitionedCall/lstm_model/lstm_1/PartitionedCall/while/merge/_139", "op": "Merge", "input": ["StatefulPartitionedCall/lstm_model/lstm_1/PartitionedCall/while/enter/_126", "StatefulPartitionedCall/lstm_model/lstm_1/PartitionedCall/while/next_iteration/_181"], "attr": {"T": {"type": "DT_VARIANT"}, "N": {"i": "2"}}}, {"name": "StatefulPartitionedCall/lstm_model/lstm_1/PartitionedCall/while/cond/_121/while/Less", "op": "Less", "input": ["StatefulPartitionedCall/lstm_model/lstm_1/PartitionedCall/while/merge/_138", "StatefulPartitionedCall/lstm_model/lstm_1/PartitionedCall/while/merge/_143", "^StatefulPartitionedCall/lstm_model/lstm_1/PartitionedCall/while/merge/_136"], "attr": {"T": {"type": "DT_INT32"}}}, {"name": "StatefulPartitionedCall/lstm_model/lstm/PartitionedCall/while/body/_52/while/add_1", "op": "AddV2", "input": ["StatefulPartitionedCall/lstm_model/lstm/PartitionedCall/while/body/_52/while/mul", "StatefulPartitionedCall/lstm_model/lstm/PartitionedCall/while/body/_52/while/mul_1"], "attr": {"T": {"type": "DT_FLOAT"}}}, {"name": "StatefulPartitionedCall/lstm_model/lstm_1/PartitionedCall/BiasAdd", "op": "BiasAdd", "input": ["StatefulPartitionedCall/lstm_model/lstm_1/PartitionedCall/add", "StatefulPartitionedCall/lstm_model/lstm_1/Read_2/ReadVariableOp"], "attr": {"T": {"type": "DT_FLOAT"}, "data_format": {"s": "TkhXQw=="}}}, {"name": "StatefulPartitionedCall/lstm_model/lstm_1/PartitionedCall/while/LoopCond/_149", "op": "LoopCond", "input": ["StatefulPartitionedCall/lstm_model/lstm_1/PartitionedCall/while/cond/_121/while/Less"]}, {"name": "StatefulPartitionedCall/lstm_model/lstm/PartitionedCall/while/body/_52/while/Tanh_1", "op": "Tanh", "input": ["StatefulPartitionedCall/lstm_model/lstm/PartitionedCall/while/body/_52/while/add_1"], "attr": {"T": {"type": "DT_FLOAT"}}}, {"name": "StatefulPartitionedCall/lstm_model/lstm/PartitionedCall/while/body/_52/while/SelectV2_2", "op": "SelectV2", "input": ["StatefulPartitionedCall/lstm_model/lstm/PartitionedCall/while/body/_52/while/TensorArrayV2Read_1/TensorListGetItem", "StatefulPartitionedCall/lstm_model/lstm/PartitionedCall/while/body/_52/while/add_1", "StatefulPartitionedCall/lstm_model/lstm/PartitionedCall/while/Func/StatefulPartitionedCall/lstm_model/lstm/PartitionedCall/input/_17_switch/_86:1"], "attr": {"T": {"type": "DT_FLOAT"}}}, {"name": "StatefulPartitionedCall/lstm_model/lstm_1/PartitionedCall/split", "op": "Split", "input": ["StatefulPartitionedCall/lstm_model/lstm_1/PartitionedCall/split/split_dim", "StatefulPartitionedCall/lstm_model/lstm_1/PartitionedCall/BiasAdd"], "attr": {"T": {"type": "DT_FLOAT"}, "num_split": {"i": "4"}}}, {"name": "StatefulPartitionedCall/lstm_model/lstm_1/PartitionedCall/while/Func/StatefulPartitionedCall/lstm_model/lstm_1/PartitionedCall/input/_29_switch/_156", "op": "Switch", "input": ["StatefulPartitionedCall/lstm_model/lstm_1/PartitionedCall/while/merge/_142", "StatefulPartitionedCall/lstm_model/lstm_1/PartitionedCall/while/LoopCond/_149"], "attr": {"T": {"type": "DT_FLOAT"}}}, {"name": "StatefulPartitionedCall/lstm_model/lstm_1/PartitionedCall/while/StatefulPartitionedCall/lstm_model/lstm_1/PartitionedCall/TensorArrayUnstack/TensorListFromTensor_switch/_158", "op": "Switch", "input": ["StatefulPartitionedCall/lstm_model/lstm_1/PartitionedCall/while/merge/_144", "StatefulPartitionedCall/lstm_model/lstm_1/PartitionedCall/while/LoopCond/_149"], "attr": {"T": {"type": "DT_VARIANT"}}}, {"name": "StatefulPartitionedCall/lstm_model/lstm_1/PartitionedCall/while/Func/StatefulPartitionedCall/lstm_model/lstm_1/PartitionedCall/input/_30_switch/_160", "op": "Switch", "input": ["StatefulPartitionedCall/lstm_model/lstm_1/PartitionedCall/while/merge/_146", "StatefulPartitionedCall/lstm_model/lstm_1/PartitionedCall/while/LoopCond/_149"], "attr": {"T": {"type": "DT_FLOAT"}}}, {"name": "StatefulPartitionedCall/lstm_model/lstm_1/PartitionedCall/while/StatefulPartitionedCall/lstm_model/lstm_1/PartitionedCall/TensorArrayUnstack_1/TensorListFromTensor_switch/_159", "op": "Switch", "input": ["StatefulPartitionedCall/lstm_model/lstm_1/PartitionedCall/while/merge/_145", "StatefulPartitionedCall/lstm_model/lstm_1/PartitionedCall/while/LoopCond/_149"], "attr": {"T": {"type": "DT_VARIANT"}}}, {"name": "StatefulPartitionedCall/lstm_model/lstm_1/PartitionedCall/while/Func/StatefulPartitionedCall/lstm_model/lstm_1/PartitionedCall/input/_28_switch/_155", "op": "Switch", "input": ["StatefulPartitionedCall/lstm_model/lstm_1/PartitionedCall/while/merge/_141", "StatefulPartitionedCall/lstm_model/lstm_1/PartitionedCall/while/LoopCond/_149"], "attr": {"T": {"type": "DT_FLOAT"}}}, {"name": "StatefulPartitionedCall/lstm_model/lstm_1/PartitionedCall/while/Func/StatefulPartitionedCall/lstm_model/lstm_1/PartitionedCall/input/_31_switch/_161", "op": "Switch", "input": ["StatefulPartitionedCall/lstm_model/lstm_1/PartitionedCall/while/merge/_147", "StatefulPartitionedCall/lstm_model/lstm_1/PartitionedCall/while/LoopCond/_149"], "attr": {"T": {"type": "DT_FLOAT"}}}, {"name": "StatefulPartitionedCall/lstm_model/lstm_1/PartitionedCall/while/Func/StatefulPartitionedCall/lstm_model/lstm_1/PartitionedCall/input/_32_switch/_162", "op": "Switch", "input": ["StatefulPartitionedCall/lstm_model/lstm_1/PartitionedCall/while/merge/_148", "StatefulPartitionedCall/lstm_model/lstm_1/PartitionedCall/while/LoopCond/_149"], "attr": {"T": {"type": "DT_FLOAT"}}}, {"name": "StatefulPartitionedCall/lstm_model/lstm_1/PartitionedCall/while/StatefulPartitionedCall/lstm_model/lstm_1/PartitionedCall/time_switch/_152", "op": "Switch", "input": ["StatefulPartitionedCall/lstm_model/lstm_1/PartitionedCall/while/merge/_138", "StatefulPartitionedCall/lstm_model/lstm_1/PartitionedCall/while/LoopCond/_149"], "attr": {"T": {"type": "DT_INT32"}}}, {"name": "StatefulPartitionedCall/lstm_model/lstm_1/PartitionedCall/while/StatefulPartitionedCall/lstm_model/lstm_1/PartitionedCall/while/loop_counter_switch/_150", "op": "Switch", "input": ["StatefulPartitionedCall/lstm_model/lstm_1/PartitionedCall/while/merge/_136", "StatefulPartitionedCall/lstm_model/lstm_1/PartitionedCall/while/LoopCond/_149"], "attr": {"T": {"type": "DT_INT32"}}}, {"name": "StatefulPartitionedCall/lstm_model/lstm_1/PartitionedCall/while/StatefulPartitionedCall/lstm_model/lstm_1/PartitionedCall/TensorArrayV2_1_switch/_153", "op": "Switch", "input": ["StatefulPartitionedCall/lstm_model/lstm_1/PartitionedCall/while/merge/_139", "StatefulPartitionedCall/lstm_model/lstm_1/PartitionedCall/while/LoopCond/_149"], "attr": {"T": {"type": "DT_VARIANT"}}}, {"name": "StatefulPartitionedCall/lstm_model/lstm_1/PartitionedCall/while/StatefulPartitionedCall/lstm_model/lstm_1/PartitionedCall/strided_slice_switch/_157", "op": "Switch", "input": ["StatefulPartitionedCall/lstm_model/lstm_1/PartitionedCall/while/merge/_143", "StatefulPartitionedCall/lstm_model/lstm_1/PartitionedCall/while/LoopCond/_149"], "attr": {"T": {"type": "DT_INT32"}}}, {"name": "StatefulPartitionedCall/lstm_model/lstm/PartitionedCall/while/body/_52/while/mul_2", "op": "Mul", "input": ["StatefulPartitionedCall/lstm_model/lstm/PartitionedCall/while/body/_52/while/Sigmoid_2", "StatefulPartitionedCall/lstm_model/lstm/PartitionedCall/while/body/_52/while/Tanh_1"], "attr": {"T": {"type": "DT_FLOAT"}}}, {"name": "StatefulPartitionedCall/lstm_model/lstm/PartitionedCall/while/next_iteration/_114", "op": "NextIteration", "input": ["StatefulPartitionedCall/lstm_model/lstm/PartitionedCall/while/body/_52/while/SelectV2_2", "^StatefulPartitionedCall/lstm_model/lstm/PartitionedCall/while/loop_body_control/_93"], "attr": {"T": {"type": "DT_FLOAT"}}}, {"name": "StatefulPartitionedCall/lstm_model/lstm_1/PartitionedCall/Sigmoid", "op": "Sigmoid", "input": ["StatefulPartitionedCall/lstm_model/lstm_1/PartitionedCall/split"], "attr": {"T": {"type": "DT_FLOAT"}}}, {"name": "StatefulPartitionedCall/lstm_model/lstm_1/PartitionedCall/Sigmoid_1", "op": "Sigmoid", "input": ["StatefulPartitionedCall/lstm_model/lstm_1/PartitionedCall/split:1"], "attr": {"T": {"type": "DT_FLOAT"}}}, {"name": "StatefulPartitionedCall/lstm_model/lstm_1/PartitionedCall/Tanh", "op": "Tanh", "input": ["StatefulPartitionedCall/lstm_model/lstm_1/PartitionedCall/split:2"], "attr": {"T": {"type": "DT_FLOAT"}}}, {"name": "StatefulPartitionedCall/lstm_model/lstm_1/PartitionedCall/Sigmoid_2", "op": "Sigmoid", "input": ["StatefulPartitionedCall/lstm_model/lstm_1/PartitionedCall/split:3"], "attr": {"T": {"type": "DT_FLOAT"}}}, {"name": "StatefulPartitionedCall/lstm_model/lstm_1/PartitionedCall/while/loop_body_control/_163", "op": "Identity", "input": ["StatefulPartitionedCall/lstm_model/lstm_1/PartitionedCall/while/StatefulPartitionedCall/lstm_model/lstm_1/PartitionedCall/while/loop_counter_switch/_150:1"], "attr": {"T": {"type": "DT_INT32"}}}, {"name": "StatefulPartitionedCall/lstm_model/lstm_1/PartitionedCall/while/exit/_167", "op": "Exit", "input": ["StatefulPartitionedCall/lstm_model/lstm_1/PartitionedCall/while/StatefulPartitionedCall/lstm_model/lstm_1/PartitionedCall/TensorArrayV2_1_switch/_153"], "attr": {"T": {"type": "DT_VARIANT"}}}, {"name": "StatefulPartitionedCall/lstm_model/lstm/PartitionedCall/while/body/_52/while/SelectV2_1", "op": "SelectV2", "input": ["StatefulPartitionedCall/lstm_model/lstm/PartitionedCall/while/body/_52/while/TensorArrayV2Read_1/TensorListGetItem", "StatefulPartitionedCall/lstm_model/lstm/PartitionedCall/while/body/_52/while/mul_2", "StatefulPartitionedCall/lstm_model/lstm/PartitionedCall/while/Func/StatefulPartitionedCall/lstm_model/lstm/PartitionedCall/input/_16_switch/_85:1"], "attr": {"T": {"type": "DT_FLOAT"}}}, {"name": "StatefulPartitionedCall/lstm_model/lstm/PartitionedCall/while/body/_52/while/SelectV2", "op": "SelectV2", "input": ["StatefulPartitionedCall/lstm_model/lstm/PartitionedCall/while/body/_52/while/TensorArrayV2Read_1/TensorListGetItem", "StatefulPartitionedCall/lstm_model/lstm/PartitionedCall/while/body/_52/while/mul_2", "StatefulPartitionedCall/lstm_model/lstm/PartitionedCall/while/StatefulPartitionedCall/lstm_model/lstm/PartitionedCall/zeros_like_switch/_84:1"], "attr": {"T": {"type": "DT_FLOAT"}}}, {"name": "StatefulPartitionedCall/lstm_model/lstm_1/PartitionedCall/mul", "op": "Mul", "input": ["StatefulPartitionedCall/lstm_model/lstm_1/PartitionedCall/Sigmoid_1", "StatefulPartitionedCall/lstm_model/lstm_1/zeros_1"], "attr": {"T": {"type": "DT_FLOAT"}}}, {"name": "StatefulPartitionedCall/lstm_model/lstm_1/PartitionedCall/mul_1", "op": "Mul", "input": ["StatefulPartitionedCall/lstm_model/lstm_1/PartitionedCall/Sigmoid", "StatefulPartitionedCall/lstm_model/lstm_1/PartitionedCall/Tanh"], "attr": {"T": {"type": "DT_FLOAT"}}}, {"name": "StatefulPartitionedCall/lstm_model/lstm_1/PartitionedCall/while/body/_122/while/split/split_dim", "op": "Const", "input": ["^StatefulPartitionedCall/lstm_model/lstm_1/PartitionedCall/while/loop_body_control/_163"], "attr": {"value": {"tensor": {"dtype": "DT_INT32", "tensorShape": {}}}, "dtype": {"type": "DT_INT32"}}}, {"name": "StatefulPartitionedCall/lstm_model/lstm_1/PartitionedCall/while/next_iteration/_186", "op": "NextIteration", "input": ["StatefulPartitionedCall/lstm_model/lstm_1/PartitionedCall/while/StatefulPartitionedCall/lstm_model/lstm_1/PartitionedCall/TensorArrayUnstack/TensorListFromTensor_switch/_158:1", "^StatefulPartitionedCall/lstm_model/lstm_1/PartitionedCall/while/loop_body_control/_163"], "attr": {"T": {"type": "DT_VARIANT"}}}, {"name": "StatefulPartitionedCall/lstm_model/lstm_1/PartitionedCall/while/body/_122/while/TensorArrayV2Read/TensorListGetItem/element_shape", "op": "Const", "input": ["^StatefulPartitionedCall/lstm_model/lstm_1/PartitionedCall/while/loop_body_control/_163"], "attr": {"value": {"tensor": {"dtype": "DT_INT32", "tensorShape": {"dim": [{"size": "2"}]}}}, "dtype": {"type": "DT_INT32"}}}, {"name": "StatefulPartitionedCall/lstm_model/lstm_1/PartitionedCall/while/next_iteration/_188", "op": "NextIteration", "input": ["StatefulPartitionedCall/lstm_model/lstm_1/PartitionedCall/while/Func/StatefulPartitionedCall/lstm_model/lstm_1/PartitionedCall/input/_30_switch/_160:1", "^StatefulPartitionedCall/lstm_model/lstm_1/PartitionedCall/while/loop_body_control/_163"], "attr": {"T": {"type": "DT_FLOAT"}}}, {"name": "StatefulPartitionedCall/lstm_model/lstm_1/PartitionedCall/while/next_iteration/_187", "op": "NextIteration", "input": ["StatefulPartitionedCall/lstm_model/lstm_1/PartitionedCall/while/StatefulPartitionedCall/lstm_model/lstm_1/PartitionedCall/TensorArrayUnstack_1/TensorListFromTensor_switch/_159:1", "^StatefulPartitionedCall/lstm_model/lstm_1/PartitionedCall/while/loop_body_control/_163"], "attr": {"T": {"type": "DT_VARIANT"}}}, {"name": "StatefulPartitionedCall/lstm_model/lstm_1/PartitionedCall/while/body/_122/while/TensorArrayV2Read_1/TensorListGetItem/element_shape", "op": "Const", "input": ["^StatefulPartitionedCall/lstm_model/lstm_1/PartitionedCall/while/loop_body_control/_163"], "attr": {"value": {"tensor": {"dtype": "DT_INT32", "tensorShape": {"dim": [{"size": "2"}]}}}, "dtype": {"type": "DT_INT32"}}}, {"name": "StatefulPartitionedCall/lstm_model/lstm_1/PartitionedCall/while/next_iteration/_189", "op": "NextIteration", "input": ["StatefulPartitionedCall/lstm_model/lstm_1/PartitionedCall/while/Func/StatefulPartitionedCall/lstm_model/lstm_1/PartitionedCall/input/_31_switch/_161:1", "^StatefulPartitionedCall/lstm_model/lstm_1/PartitionedCall/while/loop_body_control/_163"], "attr": {"T": {"type": "DT_FLOAT"}}}, {"name": "StatefulPartitionedCall/lstm_model/lstm_1/PartitionedCall/while/body/_122/while/MatMul_1", "op": "MatMul", "input": ["StatefulPartitionedCall/lstm_model/lstm_1/PartitionedCall/while/Func/StatefulPartitionedCall/lstm_model/lstm_1/PartitionedCall/input/_28_switch/_155:1", "StatefulPartitionedCall/lstm_model/lstm_1/PartitionedCall/while/Func/StatefulPartitionedCall/lstm_model/lstm_1/PartitionedCall/input/_31_switch/_161:1", "^StatefulPartitionedCall/lstm_model/lstm_1/PartitionedCall/while/loop_body_control/_163"], "device": "/device:CPU:0", "attr": {"transpose_a": {"b": false}, "T": {"type": "DT_FLOAT"}, "transpose_b": {"b": false}}}, {"name": "StatefulPartitionedCall/lstm_model/lstm_1/PartitionedCall/while/next_iteration/_190", "op": "NextIteration", "input": ["StatefulPartitionedCall/lstm_model/lstm_1/PartitionedCall/while/Func/StatefulPartitionedCall/lstm_model/lstm_1/PartitionedCall/input/_32_switch/_162:1", "^StatefulPartitionedCall/lstm_model/lstm_1/PartitionedCall/while/loop_body_control/_163"], "attr": {"T": {"type": "DT_FLOAT"}}}, {"name": "Func/StatefulPartitionedCall/lstm_model/lstm_1/PartitionedCall/while/body/_122/input/_322", "op": "Identity", "input": ["StatefulPartitionedCall/lstm_model/lstm_1/PartitionedCall/while/StatefulPartitionedCall/lstm_model/lstm_1/PartitionedCall/time_switch/_152:1", "^StatefulPartitionedCall/lstm_model/lstm_1/PartitionedCall/while/loop_body_control/_163"], "attr": {"T": {"type": "DT_INT32"}}}, {"name": "StatefulPartitionedCall/lstm_model/lstm_1/PartitionedCall/while/body/_122/while/add_2/y", "op": "Const", "input": ["^StatefulPartitionedCall/lstm_model/lstm_1/PartitionedCall/while/loop_body_control/_163"], "attr": {"value": {"tensor": {"dtype": "DT_INT32", "tensorShape": {}}}, "dtype": {"type": "DT_INT32"}}}, {"name": "StatefulPartitionedCall/lstm_model/lstm_1/PartitionedCall/while/body/_122/while/add_3/y", "op": "Const", "input": ["^StatefulPartitionedCall/lstm_model/lstm_1/PartitionedCall/while/loop_body_control/_163"], "attr": {"dtype": {"type": "DT_INT32"}, "value": {"tensor": {"dtype": "DT_INT32", "tensorShape": {}}}}}, {"name": "StatefulPartitionedCall/lstm_model/lstm_1/PartitionedCall/while/next_iteration/_185", "op": "NextIteration", "input": ["StatefulPartitionedCall/lstm_model/lstm_1/PartitionedCall/while/StatefulPartitionedCall/lstm_model/lstm_1/PartitionedCall/strided_slice_switch/_157:1", "^StatefulPartitionedCall/lstm_model/lstm_1/PartitionedCall/while/loop_body_control/_163"], "attr": {"T": {"type": "DT_INT32"}}}, {"name": "StatefulPartitionedCall/lstm_model/lstm_1/PartitionedCall/TensorArrayV2Stack/TensorListStack", "op": "TensorListStack", "input": ["StatefulPartitionedCall/lstm_model/lstm_1/PartitionedCall/while/exit/_167", "StatefulPartitionedCall/lstm_model/lstm_1/PartitionedCall/TensorArrayV2Stack/TensorListStack/element_shape"], "attr": {"num_elements": {"i": "-1"}, "element_dtype": {"type": "DT_FLOAT"}}}, {"name": "StatefulPartitionedCall/lstm_model/lstm/PartitionedCall/while/next_iteration/_113", "op": "NextIteration", "input": ["StatefulPartitionedCall/lstm_model/lstm/PartitionedCall/while/body/_52/while/SelectV2_1", "^StatefulPartitionedCall/lstm_model/lstm/PartitionedCall/while/loop_body_control/_93"], "attr": {"T": {"type": "DT_FLOAT"}}}, {"name": "StatefulPartitionedCall/lstm_model/lstm/PartitionedCall/while/next_iteration/_112", "op": "NextIteration", "input": ["StatefulPartitionedCall/lstm_model/lstm/PartitionedCall/while/body/_52/while/SelectV2", "^StatefulPartitionedCall/lstm_model/lstm/PartitionedCall/while/loop_body_control/_93"], "attr": {"T": {"type": "DT_FLOAT"}}}, {"name": "StatefulPartitionedCall/lstm_model/lstm/PartitionedCall/while/body/_52/while/TensorArrayV2Write/TensorListSetItem", "op": "TensorListSetItem", "input": ["StatefulPartitionedCall/lstm_model/lstm/PartitionedCall/while/StatefulPartitionedCall/lstm_model/lstm/PartitionedCall/TensorArrayV2_1_switch/_83:1", "Func/StatefulPartitionedCall/lstm_model/lstm/PartitionedCall/while/body/_52/input/_279", "StatefulPartitionedCall/lstm_model/lstm/PartitionedCall/while/body/_52/while/SelectV2"], "attr": {"element_dtype": {"type": "DT_FLOAT"}}, "experimentalType": {"typeId": "TFT_PRODUCT", "args": [{"typeId": "TFT_ARRAY", "args": [{"typeId": "TFT_TENSOR", "args": [{"typeId": "TFT_FLOAT"}]}]}]}}, {"name": "StatefulPartitionedCall/lstm_model/lstm_1/PartitionedCall/add_1", "op": "AddV2", "input": ["StatefulPartitionedCall/lstm_model/lstm_1/PartitionedCall/mul", "StatefulPartitionedCall/lstm_model/lstm_1/PartitionedCall/mul_1"], "attr": {"T": {"type": "DT_FLOAT"}}}, {"name": "StatefulPartitionedCall/lstm_model/lstm_1/PartitionedCall/while/body/_122/while/TensorArrayV2Read/TensorListGetItem", "op": "TensorListGetItem", "input": ["StatefulPartitionedCall/lstm_model/lstm_1/PartitionedCall/while/StatefulPartitionedCall/lstm_model/lstm_1/PartitionedCall/TensorArrayUnstack/TensorListFromTensor_switch/_158:1", "Func/StatefulPartitionedCall/lstm_model/lstm_1/PartitionedCall/while/body/_122/input/_322", "StatefulPartitionedCall/lstm_model/lstm_1/PartitionedCall/while/body/_122/while/TensorArrayV2Read/TensorListGetItem/element_shape"], "attr": {"element_dtype": {"type": "DT_FLOAT"}}}, {"name": "StatefulPartitionedCall/lstm_model/lstm_1/PartitionedCall/while/body/_122/while/TensorArrayV2Read_1/TensorListGetItem", "op": "TensorListGetItem", "input": ["StatefulPartitionedCall/lstm_model/lstm_1/PartitionedCall/while/StatefulPartitionedCall/lstm_model/lstm_1/PartitionedCall/TensorArrayUnstack_1/TensorListFromTensor_switch/_159:1", "Func/StatefulPartitionedCall/lstm_model/lstm_1/PartitionedCall/while/body/_122/input/_322", "StatefulPartitionedCall/lstm_model/lstm_1/PartitionedCall/while/body/_122/while/TensorArrayV2Read_1/TensorListGetItem/element_shape"], "attr": {"element_dtype": {"type": "DT_BOOL"}}}, {"name": "StatefulPartitionedCall/lstm_model/lstm_1/PartitionedCall/while/body/_122/while/add_2", "op": "AddV2", "input": ["Func/StatefulPartitionedCall/lstm_model/lstm_1/PartitionedCall/while/body/_122/input/_322", "StatefulPartitionedCall/lstm_model/lstm_1/PartitionedCall/while/body/_122/while/add_2/y"], "attr": {"T": {"type": "DT_INT32"}}}, {"name": "StatefulPartitionedCall/lstm_model/lstm_1/PartitionedCall/while/body/_122/while/add_3", "op": "AddV2", "input": ["StatefulPartitionedCall/lstm_model/lstm_1/PartitionedCall/while/StatefulPartitionedCall/lstm_model/lstm_1/PartitionedCall/while/loop_counter_switch/_150:1", "StatefulPartitionedCall/lstm_model/lstm_1/PartitionedCall/while/body/_122/while/add_3/y"], "attr": {"T": {"type": "DT_INT32"}}}, {"name": "StatefulPartitionedCall/lstm_model/lstm_1/PartitionedCall/transpose_2", "op": "Transpose", "input": ["StatefulPartitionedCall/lstm_model/lstm_1/PartitionedCall/TensorArrayV2Stack/TensorListStack", "StatefulPartitionedCall/lstm_model/lstm_1/PartitionedCall/transpose_2/perm"], "attr": {"Tperm": {"type": "DT_INT32"}, "T": {"type": "DT_FLOAT"}}}, {"name": "StatefulPartitionedCall/lstm_model/lstm/PartitionedCall/while/next_iteration/_111", "op": "NextIteration", "input": ["StatefulPartitionedCall/lstm_model/lstm/PartitionedCall/while/body/_52/while/TensorArrayV2Write/TensorListSetItem", "^StatefulPartitionedCall/lstm_model/lstm/PartitionedCall/while/loop_body_control/_93"], "attr": {"T": {"type": "DT_VARIANT"}}}, {"name": "StatefulPartitionedCall/lstm_model/lstm_1/PartitionedCall/Tanh_1", "op": "Tanh", "input": ["StatefulPartitionedCall/lstm_model/lstm_1/PartitionedCall/add_1"], "attr": {"T": {"type": "DT_FLOAT"}}}, {"name": "StatefulPartitionedCall/lstm_model/lstm_1/PartitionedCall/while/body/_122/while/MatMul", "op": "MatMul", "input": ["StatefulPartitionedCall/lstm_model/lstm_1/PartitionedCall/while/body/_122/while/TensorArrayV2Read/TensorListGetItem", "StatefulPartitionedCall/lstm_model/lstm_1/PartitionedCall/while/Func/StatefulPartitionedCall/lstm_model/lstm_1/PartitionedCall/input/_30_switch/_160:1"], "device": "/device:CPU:0", "attr": {"transpose_b": {"b": false}, "transpose_a": {"b": false}, "T": {"type": "DT_FLOAT"}}}, {"name": "StatefulPartitionedCall/lstm_model/lstm_1/PartitionedCall/while/next_iteration/_180", "op": "NextIteration", "input": ["StatefulPartitionedCall/lstm_model/lstm_1/PartitionedCall/while/body/_122/while/add_2", "^StatefulPartitionedCall/lstm_model/lstm_1/PartitionedCall/while/loop_body_control/_163"], "attr": {"T": {"type": "DT_INT32"}}}, {"name": "StatefulPartitionedCall/lstm_model/lstm_1/PartitionedCall/while/next_iteration/_178", "op": "NextIteration", "input": ["StatefulPartitionedCall/lstm_model/lstm_1/PartitionedCall/while/body/_122/while/add_3", "^StatefulPartitionedCall/lstm_model/lstm_1/PartitionedCall/while/loop_body_control/_163"], "attr": {"T": {"type": "DT_INT32"}}}, {"name": "StatefulPartitionedCall/lstm_model/lstm_2/Shape", "op": "Shape", "input": ["StatefulPartitionedCall/lstm_model/lstm_1/PartitionedCall/transpose_2"], "attr": {"out_type": {"type": "DT_INT32"}, "T": {"type": "DT_FLOAT"}}}, {"name": "StatefulPartitionedCall/lstm_model/lstm_2/mul", "op": "Identity", "input": ["StatefulPartitionedCall/lstm_model/lstm_1/PartitionedCall/TensorArrayV2Stack/TensorListStack", "^StatefulPartitionedCall/lstm_model/lstm_1/PartitionedCall/transpose_2"], "attr": {"T": {"type": "DT_FLOAT"}}}, {"name": "StatefulPartitionedCall/lstm_model/lstm_1/PartitionedCall/mul_2", "op": "Mul", "input": ["StatefulPartitionedCall/lstm_model/lstm_1/PartitionedCall/Sigmoid_2", "StatefulPartitionedCall/lstm_model/lstm_1/PartitionedCall/Tanh_1"], "attr": {"T": {"type": "DT_FLOAT"}}}, {"name": "StatefulPartitionedCall/lstm_model/lstm_1/PartitionedCall/while/body/_122/while/add", "op": "AddV2", "input": ["StatefulPartitionedCall/lstm_model/lstm_1/PartitionedCall/while/body/_122/while/MatMul", "StatefulPartitionedCall/lstm_model/lstm_1/PartitionedCall/while/body/_122/while/MatMul_1"], "attr": {"T": {"type": "DT_FLOAT"}}}, {"name": "StatefulPartitionedCall/lstm_model/lstm_2/strided_slice", "op": "StridedSlice", "input": ["StatefulPartitionedCall/lstm_model/lstm_2/Shape", "StatefulPartitionedCall/lstm_model/lstm_2/strided_slice/stack", "StatefulPartitionedCall/lstm_model/lstm_2/strided_slice/stack_1", "StatefulPartitionedCall/lstm_model/lstm_2/strided_slice/stack_2"], "attr": {"new_axis_mask": {"i": "0"}, "end_mask": {"i": "0"}, "Index": {"type": "DT_INT32"}, "T": {"type": "DT_INT32"}, "ellipsis_mask": {"i": "0"}, "shrink_axis_mask": {"i": "1"}, "begin_mask": {"i": "0"}}}, {"name": "StatefulPartitionedCall/lstm_model/lstm_2/PartitionedCall/TensorArrayUnstack/TensorListFromTensor", "op": "TensorListFromTensor", "input": ["StatefulPartitionedCall/lstm_model/lstm_2/mul", "StatefulPartitionedCall/lstm_model/lstm_2/PartitionedCall/TensorArrayUnstack/TensorListFromTensor/element_shape"], "attr": {"shape_type": {"type": "DT_INT32"}, "element_dtype": {"type": "DT_FLOAT"}}, "experimentalType": {"typeId": "TFT_PRODUCT", "args": [{"typeId": "TFT_ARRAY", "args": [{"typeId": "TFT_TENSOR", "args": [{"typeId": "TFT_FLOAT"}]}]}]}}, {"name": "StatefulPartitionedCall/lstm_model/lstm_2/PartitionedCall/strided_slice_1", "op": "StridedSlice", "input": ["StatefulPartitionedCall/lstm_model/lstm_2/mul", "StatefulPartitionedCall/lstm_model/lstm_2/PartitionedCall/strided_slice_1/stack", "StatefulPartitionedCall/lstm_model/lstm_2/PartitionedCall/strided_slice_1/stack_1", "StatefulPartitionedCall/lstm_model/lstm_2/PartitionedCall/strided_slice_1/stack_2"], "attr": {"ellipsis_mask": {"i": "0"}, "new_axis_mask": {"i": "0"}, "begin_mask": {"i": "0"}, "T": {"type": "DT_FLOAT"}, "Index": {"type": "DT_INT32"}, "end_mask": {"i": "0"}, "shrink_axis_mask": {"i": "1"}}}, {"name": "StatefulPartitionedCall/lstm_model/lstm_2/PartitionedCall/Shape", "op": "Shape", "input": ["StatefulPartitionedCall/lstm_model/lstm_2/mul"], "attr": {"T": {"type": "DT_FLOAT"}, "out_type": {"type": "DT_INT32"}}}, {"name": "StatefulPartitionedCall/lstm_model/lstm_1/PartitionedCall/zeros_like", "op": "ZerosLike", "input": ["StatefulPartitionedCall/lstm_model/lstm_1/PartitionedCall/mul_2"], "attr": {"T": {"type": "DT_FLOAT"}}}, {"name": "StatefulPartitionedCall/lstm_model/lstm_1/PartitionedCall/while/body/_122/while/BiasAdd", "op": "BiasAdd", "input": ["StatefulPartitionedCall/lstm_model/lstm_1/PartitionedCall/while/body/_122/while/add", "StatefulPartitionedCall/lstm_model/lstm_1/PartitionedCall/while/Func/StatefulPartitionedCall/lstm_model/lstm_1/PartitionedCall/input/_32_switch/_162:1"], "attr": {"data_format": {"s": "TkhXQw=="}, "T": {"type": "DT_FLOAT"}}}, {"name": "StatefulPartitionedCall/lstm_model/lstm_2/zeros_1/packed", "op": "Pack", "input": ["StatefulPartitionedCall/lstm_model/lstm_2/strided_slice", "StatefulPartitionedCall/lstm_model/lstm_2/zeros_1/packed/1"], "attr": {"T": {"type": "DT_INT32"}, "axis": {"i": "0"}, "N": {"i": "2"}}}, {"name": "StatefulPartitionedCall/lstm_model/lstm_2/zeros/packed", "op": "Pack", "input": ["StatefulPartitionedCall/lstm_model/lstm_2/strided_slice", "StatefulPartitionedCall/lstm_model/lstm_2/zeros/packed/1"], "attr": {"axis": {"i": "0"}, "N": {"i": "2"}, "T": {"type": "DT_INT32"}}}, {"name": "StatefulPartitionedCall/lstm_model/lstm_2/PartitionedCall/while/enter/_201", "op": "Enter", "input": ["StatefulPartitionedCall/lstm_model/lstm_2/PartitionedCall/TensorArrayUnstack/TensorListFromTensor"], "attr": {"parallel_iterations": {"i": "32"}, "is_constant": {"b": false}, "T": {"type": "DT_VARIANT"}, "frame_name": {"s": "U3RhdGVmdWxQYXJ0aXRpb25lZENhbGwvbHN0bV9tb2RlbC9sc3RtXzIvUGFydGl0aW9uZWRDYWxsL3doaWxl"}}}, {"name": "StatefulPartitionedCall/lstm_model/lstm_2/PartitionedCall/MatMul", "op": "MatMul", "input": ["StatefulPartitionedCall/lstm_model/lstm_2/PartitionedCall/strided_slice_1", "StatefulPartitionedCall/lstm_model/lstm_2/Read/ReadVariableOp"], "device": "/device:CPU:0", "attr": {"transpose_a": {"b": false}, "T": {"type": "DT_FLOAT"}, "transpose_b": {"b": false}}}, {"name": "StatefulPartitionedCall/lstm_model/lstm_2/PartitionedCall/strided_slice", "op": "StridedSlice", "input": ["StatefulPartitionedCall/lstm_model/lstm_2/PartitionedCall/Shape", "StatefulPartitionedCall/lstm_model/lstm_2/PartitionedCall/strided_slice/stack", "StatefulPartitionedCall/lstm_model/lstm_2/PartitionedCall/strided_slice/stack_1", "StatefulPartitionedCall/lstm_model/lstm_2/PartitionedCall/strided_slice/stack_2"], "attr": {"shrink_axis_mask": {"i": "1"}, "Index": {"type": "DT_INT32"}, "end_mask": {"i": "0"}, "begin_mask": {"i": "0"}, "T": {"type": "DT_INT32"}, "ellipsis_mask": {"i": "0"}, "new_axis_mask": {"i": "0"}}}, {"name": "StatefulPartitionedCall/lstm_model/lstm_1/PartitionedCall/while/enter/_127", "op": "Enter", "input": ["StatefulPartitionedCall/lstm_model/lstm_1/PartitionedCall/zeros_like"], "attr": {"is_constant": {"b": false}, "frame_name": {"s": "U3RhdGVmdWxQYXJ0aXRpb25lZENhbGwvbHN0bV9tb2RlbC9sc3RtXzEvUGFydGl0aW9uZWRDYWxsL3doaWxl"}, "parallel_iterations": {"i": "32"}, "T": {"type": "DT_FLOAT"}}}, {"name": "StatefulPartitionedCall/lstm_model/lstm_1/PartitionedCall/while/body/_122/while/split", "op": "Split", "input": ["StatefulPartitionedCall/lstm_model/lstm_1/PartitionedCall/while/body/_122/while/split/split_dim", "StatefulPartitionedCall/lstm_model/lstm_1/PartitionedCall/while/body/_122/while/BiasAdd"], "attr": {"T": {"type": "DT_FLOAT"}, "num_split": {"i": "4"}}}, {"name": "StatefulPartitionedCall/lstm_model/lstm_2/zeros_1", "op": "Fill", "input": ["StatefulPartitionedCall/lstm_model/lstm_2/zeros_1/packed", "StatefulPartitionedCall/lstm_model/lstm_2/zeros_1/Const"], "attr": {"T": {"type": "DT_FLOAT"}, "index_type": {"type": "DT_INT32"}}}, {"name": "StatefulPartitionedCall/lstm_model/lstm_2/zeros", "op": "Fill", "input": ["StatefulPartitionedCall/lstm_model/lstm_2/zeros/packed", "StatefulPartitionedCall/lstm_model/lstm_2/zeros/Const"], "attr": {"T": {"type": "DT_FLOAT"}, "index_type": {"type": "DT_INT32"}}}, {"name": "StatefulPartitionedCall/lstm_model/lstm_2/PartitionedCall/while/merge/_214", "op": "Merge", "input": ["StatefulPartitionedCall/lstm_model/lstm_2/PartitionedCall/while/enter/_201", "StatefulPartitionedCall/lstm_model/lstm_2/PartitionedCall/while/next_iteration/_256"], "attr": {"N": {"i": "2"}, "T": {"type": "DT_VARIANT"}}}, {"name": "StatefulPartitionedCall/lstm_model/lstm_2/PartitionedCall/TensorArrayV2_1", "op": "TensorListReserve", "input": ["StatefulPartitionedCall/lstm_model/lstm_2/PartitionedCall/TensorArrayV2_1/element_shape", "StatefulPartitionedCall/lstm_model/lstm_2/PartitionedCall/strided_slice"], "attr": {"shape_type": {"type": "DT_INT32"}, "element_dtype": {"type": "DT_FLOAT"}}, "experimentalType": {"typeId": "TFT_PRODUCT", "args": [{"typeId": "TFT_ARRAY", "args": [{"typeId": "TFT_TENSOR", "args": [{"typeId": "TFT_FLOAT"}]}]}]}}, {"name": "StatefulPartitionedCall/lstm_model/lstm_2/PartitionedCall/while/enter/_200", "op": "Enter", "input": ["StatefulPartitionedCall/lstm_model/lstm_2/PartitionedCall/strided_slice"], "attr": {"is_constant": {"b": false}, "parallel_iterations": {"i": "32"}, "T": {"type": "DT_INT32"}, "frame_name": {"s": "U3RhdGVmdWxQYXJ0aXRpb25lZENhbGwvbHN0bV9tb2RlbC9sc3RtXzIvUGFydGl0aW9uZWRDYWxsL3doaWxl"}}}, {"name": "StatefulPartitionedCall/lstm_model/lstm_1/PartitionedCall/while/merge/_140", "op": "Merge", "input": ["StatefulPartitionedCall/lstm_model/lstm_1/PartitionedCall/while/enter/_127", "StatefulPartitionedCall/lstm_model/lstm_1/PartitionedCall/while/next_iteration/_182"], "attr": {"N": {"i": "2"}, "T": {"type": "DT_FLOAT"}}}, {"name": "StatefulPartitionedCall/lstm_model/lstm_1/PartitionedCall/while/body/_122/while/Sigmoid", "op": "Sigmoid", "input": ["StatefulPartitionedCall/lstm_model/lstm_1/PartitionedCall/while/body/_122/while/split"], "attr": {"T": {"type": "DT_FLOAT"}}}, {"name": "StatefulPartitionedCall/lstm_model/lstm_1/PartitionedCall/while/body/_122/while/Sigmoid_1", "op": "Sigmoid", "input": ["StatefulPartitionedCall/lstm_model/lstm_1/PartitionedCall/while/body/_122/while/split:1"], "attr": {"T": {"type": "DT_FLOAT"}}}, {"name": "StatefulPartitionedCall/lstm_model/lstm_1/PartitionedCall/while/body/_122/while/Tanh", "op": "Tanh", "input": ["StatefulPartitionedCall/lstm_model/lstm_1/PartitionedCall/while/body/_122/while/split:2"], "attr": {"T": {"type": "DT_FLOAT"}}}, {"name": "StatefulPartitionedCall/lstm_model/lstm_1/PartitionedCall/while/body/_122/while/Sigmoid_2", "op": "Sigmoid", "input": ["StatefulPartitionedCall/lstm_model/lstm_1/PartitionedCall/while/body/_122/while/split:3"], "attr": {"T": {"type": "DT_FLOAT"}}}, {"name": "StatefulPartitionedCall/lstm_model/lstm_2/PartitionedCall/while/enter/_199", "op": "Enter", "input": ["StatefulPartitionedCall/lstm_model/lstm_2/zeros_1"], "attr": {"frame_name": {"s": "U3RhdGVmdWxQYXJ0aXRpb25lZENhbGwvbHN0bV9tb2RlbC9sc3RtXzIvUGFydGl0aW9uZWRDYWxsL3doaWxl"}, "parallel_iterations": {"i": "32"}, "is_constant": {"b": false}, "T": {"type": "DT_FLOAT"}}}, {"name": "StatefulPartitionedCall/lstm_model/lstm_2/PartitionedCall/while/enter/_198", "op": "Enter", "input": ["StatefulPartitionedCall/lstm_model/lstm_2/zeros"], "attr": {"frame_name": {"s": "U3RhdGVmdWxQYXJ0aXRpb25lZENhbGwvbHN0bV9tb2RlbC9sc3RtXzIvUGFydGl0aW9uZWRDYWxsL3doaWxl"}, "is_constant": {"b": false}, "T": {"type": "DT_FLOAT"}, "parallel_iterations": {"i": "32"}}}, {"name": "StatefulPartitionedCall/lstm_model/lstm_2/PartitionedCall/MatMul_1", "op": "MatMul", "input": ["StatefulPartitionedCall/lstm_model/lstm_2/zeros", "StatefulPartitionedCall/lstm_model/lstm_2/Read_1/ReadVariableOp"], "device": "/device:CPU:0", "attr": {"transpose_a": {"b": false}, "T": {"type": "DT_FLOAT"}, "transpose_b": {"b": false}}}, {"name": "StatefulPartitionedCall/lstm_model/lstm_2/PartitionedCall/while/enter/_196", "op": "Enter", "input": ["StatefulPartitionedCall/lstm_model/lstm_2/PartitionedCall/TensorArrayV2_1"], "attr": {"parallel_iterations": {"i": "32"}, "frame_name": {"s": "U3RhdGVmdWxQYXJ0aXRpb25lZENhbGwvbHN0bV9tb2RlbC9sc3RtXzIvUGFydGl0aW9uZWRDYWxsL3doaWxl"}, "T": {"type": "DT_VARIANT"}, "is_constant": {"b": false}}}, {"name": "StatefulPartitionedCall/lstm_model/lstm_2/PartitionedCall/while/merge/_213", "op": "Merge", "input": ["StatefulPartitionedCall/lstm_model/lstm_2/PartitionedCall/while/enter/_200", "StatefulPartitionedCall/lstm_model/lstm_2/PartitionedCall/while/next_iteration/_255"], "attr": {"T": {"type": "DT_INT32"}, "N": {"i": "2"}}}, {"name": "StatefulPartitionedCall/lstm_model/lstm_1/PartitionedCall/while/StatefulPartitionedCall/lstm_model/lstm_1/PartitionedCall/zeros_like_switch/_154", "op": "Switch", "input": ["StatefulPartitionedCall/lstm_model/lstm_1/PartitionedCall/while/merge/_140", "StatefulPartitionedCall/lstm_model/lstm_1/PartitionedCall/while/LoopCond/_149"], "attr": {"T": {"type": "DT_FLOAT"}}}, {"name": "StatefulPartitionedCall/lstm_model/lstm_1/PartitionedCall/while/body/_122/while/mul", "op": "Mul", "input": ["StatefulPartitionedCall/lstm_model/lstm_1/PartitionedCall/while/body/_122/while/Sigmoid_1", "StatefulPartitionedCall/lstm_model/lstm_1/PartitionedCall/while/Func/StatefulPartitionedCall/lstm_model/lstm_1/PartitionedCall/input/_29_switch/_156:1"], "attr": {"T": {"type": "DT_FLOAT"}}}, {"name": "StatefulPartitionedCall/lstm_model/lstm_1/PartitionedCall/while/body/_122/while/mul_1", "op": "Mul", "input": ["StatefulPartitionedCall/lstm_model/lstm_1/PartitionedCall/while/body/_122/while/Sigmoid", "StatefulPartitionedCall/lstm_model/lstm_1/PartitionedCall/while/body/_122/while/Tanh"], "attr": {"T": {"type": "DT_FLOAT"}}}, {"name": "StatefulPartitionedCall/lstm_model/lstm_2/PartitionedCall/while/merge/_212", "op": "Merge", "input": ["StatefulPartitionedCall/lstm_model/lstm_2/PartitionedCall/while/enter/_199", "StatefulPartitionedCall/lstm_model/lstm_2/PartitionedCall/while/next_iteration/_254"], "attr": {"N": {"i": "2"}, "T": {"type": "DT_FLOAT"}}}, {"name": "StatefulPartitionedCall/lstm_model/lstm_2/PartitionedCall/while/merge/_211", "op": "Merge", "input": ["StatefulPartitionedCall/lstm_model/lstm_2/PartitionedCall/while/enter/_198", "StatefulPartitionedCall/lstm_model/lstm_2/PartitionedCall/while/next_iteration/_253"], "attr": {"N": {"i": "2"}, "T": {"type": "DT_FLOAT"}}}, {"name": "StatefulPartitionedCall/lstm_model/lstm_2/PartitionedCall/add", "op": "AddV2", "input": ["StatefulPartitionedCall/lstm_model/lstm_2/PartitionedCall/MatMul", "StatefulPartitionedCall/lstm_model/lstm_2/PartitionedCall/MatMul_1"], "attr": {"T": {"type": "DT_FLOAT"}}}, {"name": "StatefulPartitionedCall/lstm_model/lstm_2/PartitionedCall/while/merge/_209", "op": "Merge", "input": ["StatefulPartitionedCall/lstm_model/lstm_2/PartitionedCall/while/enter/_196", "StatefulPartitionedCall/lstm_model/lstm_2/PartitionedCall/while/next_iteration/_251"], "attr": {"T": {"type": "DT_VARIANT"}, "N": {"i": "2"}}}, {"name": "StatefulPartitionedCall/lstm_model/lstm_2/PartitionedCall/while/cond/_191/while/Less", "op": "Less", "input": ["StatefulPartitionedCall/lstm_model/lstm_2/PartitionedCall/while/merge/_208", "StatefulPartitionedCall/lstm_model/lstm_2/PartitionedCall/while/merge/_213", "^StatefulPartitionedCall/lstm_model/lstm_2/PartitionedCall/while/merge/_206"], "attr": {"T": {"type": "DT_INT32"}}}, {"name": "StatefulPartitionedCall/lstm_model/lstm_1/PartitionedCall/while/body/_122/while/add_1", "op": "AddV2", "input": ["StatefulPartitionedCall/lstm_model/lstm_1/PartitionedCall/while/body/_122/while/mul", "StatefulPartitionedCall/lstm_model/lstm_1/PartitionedCall/while/body/_122/while/mul_1"], "attr": {"T": {"type": "DT_FLOAT"}}}, {"name": "StatefulPartitionedCall/lstm_model/lstm_2/PartitionedCall/BiasAdd", "op": "BiasAdd", "input": ["StatefulPartitionedCall/lstm_model/lstm_2/PartitionedCall/add", "StatefulPartitionedCall/lstm_model/lstm_2/Read_2/ReadVariableOp"], "attr": {"data_format": {"s": "TkhXQw=="}, "T": {"type": "DT_FLOAT"}}}, {"name": "StatefulPartitionedCall/lstm_model/lstm_2/PartitionedCall/while/LoopCond/_219", "op": "LoopCond", "input": ["StatefulPartitionedCall/lstm_model/lstm_2/PartitionedCall/while/cond/_191/while/Less"]}, {"name": "StatefulPartitionedCall/lstm_model/lstm_1/PartitionedCall/while/body/_122/while/Tanh_1", "op": "Tanh", "input": ["StatefulPartitionedCall/lstm_model/lstm_1/PartitionedCall/while/body/_122/while/add_1"], "attr": {"T": {"type": "DT_FLOAT"}}}, {"name": "StatefulPartitionedCall/lstm_model/lstm_1/PartitionedCall/while/body/_122/while/SelectV2_2", "op": "SelectV2", "input": ["StatefulPartitionedCall/lstm_model/lstm_1/PartitionedCall/while/body/_122/while/TensorArrayV2Read_1/TensorListGetItem", "StatefulPartitionedCall/lstm_model/lstm_1/PartitionedCall/while/body/_122/while/add_1", "StatefulPartitionedCall/lstm_model/lstm_1/PartitionedCall/while/Func/StatefulPartitionedCall/lstm_model/lstm_1/PartitionedCall/input/_29_switch/_156:1"], "attr": {"T": {"type": "DT_FLOAT"}}}, {"name": "StatefulPartitionedCall/lstm_model/lstm_2/PartitionedCall/split", "op": "Split", "input": ["StatefulPartitionedCall/lstm_model/lstm_2/PartitionedCall/split/split_dim", "StatefulPartitionedCall/lstm_model/lstm_2/PartitionedCall/BiasAdd"], "attr": {"num_split": {"i": "4"}, "T": {"type": "DT_FLOAT"}}}, {"name": "StatefulPartitionedCall/lstm_model/lstm_2/PartitionedCall/while/Func/StatefulPartitionedCall/lstm_model/lstm_2/PartitionedCall/input/_41_switch/_226", "op": "Switch", "input": ["StatefulPartitionedCall/lstm_model/lstm_2/PartitionedCall/while/merge/_212", "StatefulPartitionedCall/lstm_model/lstm_2/PartitionedCall/while/LoopCond/_219"], "attr": {"T": {"type": "DT_FLOAT"}}}, {"name": "StatefulPartitionedCall/lstm_model/lstm_2/PartitionedCall/while/StatefulPartitionedCall/lstm_model/lstm_2/PartitionedCall/TensorArrayUnstack/TensorListFromTensor_switch/_228", "op": "Switch", "input": ["StatefulPartitionedCall/lstm_model/lstm_2/PartitionedCall/while/merge/_214", "StatefulPartitionedCall/lstm_model/lstm_2/PartitionedCall/while/LoopCond/_219"], "attr": {"T": {"type": "DT_VARIANT"}}}, {"name": "StatefulPartitionedCall/lstm_model/lstm_2/PartitionedCall/while/Func/StatefulPartitionedCall/lstm_model/lstm_2/PartitionedCall/input/_42_switch/_230", "op": "Switch", "input": ["StatefulPartitionedCall/lstm_model/lstm_2/PartitionedCall/while/merge/_216", "StatefulPartitionedCall/lstm_model/lstm_2/PartitionedCall/while/LoopCond/_219"], "attr": {"T": {"type": "DT_FLOAT"}}}, {"name": "StatefulPartitionedCall/lstm_model/lstm_2/PartitionedCall/while/StatefulPartitionedCall/lstm_model/lstm_2/PartitionedCall/TensorArrayUnstack_1/TensorListFromTensor_switch/_229", "op": "Switch", "input": ["StatefulPartitionedCall/lstm_model/lstm_2/PartitionedCall/while/merge/_215", "StatefulPartitionedCall/lstm_model/lstm_2/PartitionedCall/while/LoopCond/_219"], "attr": {"T": {"type": "DT_VARIANT"}}}, {"name": "StatefulPartitionedCall/lstm_model/lstm_2/PartitionedCall/while/Func/StatefulPartitionedCall/lstm_model/lstm_2/PartitionedCall/input/_40_switch/_225", "op": "Switch", "input": ["StatefulPartitionedCall/lstm_model/lstm_2/PartitionedCall/while/merge/_211", "StatefulPartitionedCall/lstm_model/lstm_2/PartitionedCall/while/LoopCond/_219"], "attr": {"T": {"type": "DT_FLOAT"}}}, {"name": "StatefulPartitionedCall/lstm_model/lstm_2/PartitionedCall/while/Func/StatefulPartitionedCall/lstm_model/lstm_2/PartitionedCall/input/_43_switch/_231", "op": "Switch", "input": ["StatefulPartitionedCall/lstm_model/lstm_2/PartitionedCall/while/merge/_217", "StatefulPartitionedCall/lstm_model/lstm_2/PartitionedCall/while/LoopCond/_219"], "attr": {"T": {"type": "DT_FLOAT"}}}, {"name": "StatefulPartitionedCall/lstm_model/lstm_2/PartitionedCall/while/Func/StatefulPartitionedCall/lstm_model/lstm_2/PartitionedCall/input/_44_switch/_232", "op": "Switch", "input": ["StatefulPartitionedCall/lstm_model/lstm_2/PartitionedCall/while/merge/_218", "StatefulPartitionedCall/lstm_model/lstm_2/PartitionedCall/while/LoopCond/_219"], "attr": {"T": {"type": "DT_FLOAT"}}}, {"name": "StatefulPartitionedCall/lstm_model/lstm_2/PartitionedCall/while/StatefulPartitionedCall/lstm_model/lstm_2/PartitionedCall/time_switch/_222", "op": "Switch", "input": ["StatefulPartitionedCall/lstm_model/lstm_2/PartitionedCall/while/merge/_208", "StatefulPartitionedCall/lstm_model/lstm_2/PartitionedCall/while/LoopCond/_219"], "attr": {"T": {"type": "DT_INT32"}}}, {"name": "StatefulPartitionedCall/lstm_model/lstm_2/PartitionedCall/while/StatefulPartitionedCall/lstm_model/lstm_2/PartitionedCall/while/loop_counter_switch/_220", "op": "Switch", "input": ["StatefulPartitionedCall/lstm_model/lstm_2/PartitionedCall/while/merge/_206", "StatefulPartitionedCall/lstm_model/lstm_2/PartitionedCall/while/LoopCond/_219"], "attr": {"T": {"type": "DT_INT32"}}}, {"name": "StatefulPartitionedCall/lstm_model/lstm_2/PartitionedCall/while/StatefulPartitionedCall/lstm_model/lstm_2/PartitionedCall/TensorArrayV2_1_switch/_223", "op": "Switch", "input": ["StatefulPartitionedCall/lstm_model/lstm_2/PartitionedCall/while/merge/_209", "StatefulPartitionedCall/lstm_model/lstm_2/PartitionedCall/while/LoopCond/_219"], "attr": {"T": {"type": "DT_VARIANT"}}}, {"name": "StatefulPartitionedCall/lstm_model/lstm_2/PartitionedCall/while/StatefulPartitionedCall/lstm_model/lstm_2/PartitionedCall/strided_slice_switch/_227", "op": "Switch", "input": ["StatefulPartitionedCall/lstm_model/lstm_2/PartitionedCall/while/merge/_213", "StatefulPartitionedCall/lstm_model/lstm_2/PartitionedCall/while/LoopCond/_219"], "attr": {"T": {"type": "DT_INT32"}}}, {"name": "StatefulPartitionedCall/lstm_model/lstm_1/PartitionedCall/while/body/_122/while/mul_2", "op": "Mul", "input": ["StatefulPartitionedCall/lstm_model/lstm_1/PartitionedCall/while/body/_122/while/Sigmoid_2", "StatefulPartitionedCall/lstm_model/lstm_1/PartitionedCall/while/body/_122/while/Tanh_1"], "attr": {"T": {"type": "DT_FLOAT"}}}, {"name": "StatefulPartitionedCall/lstm_model/lstm_1/PartitionedCall/while/next_iteration/_184", "op": "NextIteration", "input": ["StatefulPartitionedCall/lstm_model/lstm_1/PartitionedCall/while/body/_122/while/SelectV2_2", "^StatefulPartitionedCall/lstm_model/lstm_1/PartitionedCall/while/loop_body_control/_163"], "attr": {"T": {"type": "DT_FLOAT"}}}, {"name": "StatefulPartitionedCall/lstm_model/lstm_2/PartitionedCall/Sigmoid", "op": "Sigmoid", "input": ["StatefulPartitionedCall/lstm_model/lstm_2/PartitionedCall/split"], "attr": {"T": {"type": "DT_FLOAT"}}}, {"name": "StatefulPartitionedCall/lstm_model/lstm_2/PartitionedCall/Sigmoid_1", "op": "Sigmoid", "input": ["StatefulPartitionedCall/lstm_model/lstm_2/PartitionedCall/split:1"], "attr": {"T": {"type": "DT_FLOAT"}}}, {"name": "StatefulPartitionedCall/lstm_model/lstm_2/PartitionedCall/Tanh", "op": "Tanh", "input": ["StatefulPartitionedCall/lstm_model/lstm_2/PartitionedCall/split:2"], "attr": {"T": {"type": "DT_FLOAT"}}}, {"name": "StatefulPartitionedCall/lstm_model/lstm_2/PartitionedCall/Sigmoid_2", "op": "Sigmoid", "input": ["StatefulPartitionedCall/lstm_model/lstm_2/PartitionedCall/split:3"], "attr": {"T": {"type": "DT_FLOAT"}}}, {"name": "StatefulPartitionedCall/lstm_model/lstm_2/PartitionedCall/while/loop_body_control/_233", "op": "Identity", "input": ["StatefulPartitionedCall/lstm_model/lstm_2/PartitionedCall/while/StatefulPartitionedCall/lstm_model/lstm_2/PartitionedCall/while/loop_counter_switch/_220:1"], "attr": {"T": {"type": "DT_INT32"}}}, {"name": "StatefulPartitionedCall/lstm_model/lstm_2/PartitionedCall/while/exit/_237", "op": "Exit", "input": ["StatefulPartitionedCall/lstm_model/lstm_2/PartitionedCall/while/StatefulPartitionedCall/lstm_model/lstm_2/PartitionedCall/TensorArrayV2_1_switch/_223"], "attr": {"T": {"type": "DT_VARIANT"}}}, {"name": "StatefulPartitionedCall/lstm_model/lstm_1/PartitionedCall/while/body/_122/while/SelectV2_1", "op": "SelectV2", "input": ["StatefulPartitionedCall/lstm_model/lstm_1/PartitionedCall/while/body/_122/while/TensorArrayV2Read_1/TensorListGetItem", "StatefulPartitionedCall/lstm_model/lstm_1/PartitionedCall/while/body/_122/while/mul_2", "StatefulPartitionedCall/lstm_model/lstm_1/PartitionedCall/while/Func/StatefulPartitionedCall/lstm_model/lstm_1/PartitionedCall/input/_28_switch/_155:1"], "attr": {"T": {"type": "DT_FLOAT"}}}, {"name": "StatefulPartitionedCall/lstm_model/lstm_1/PartitionedCall/while/body/_122/while/SelectV2", "op": "SelectV2", "input": ["StatefulPartitionedCall/lstm_model/lstm_1/PartitionedCall/while/body/_122/while/TensorArrayV2Read_1/TensorListGetItem", "StatefulPartitionedCall/lstm_model/lstm_1/PartitionedCall/while/body/_122/while/mul_2", "StatefulPartitionedCall/lstm_model/lstm_1/PartitionedCall/while/StatefulPartitionedCall/lstm_model/lstm_1/PartitionedCall/zeros_like_switch/_154:1"], "attr": {"T": {"type": "DT_FLOAT"}}}, {"name": "StatefulPartitionedCall/lstm_model/lstm_2/PartitionedCall/mul", "op": "Mul", "input": ["StatefulPartitionedCall/lstm_model/lstm_2/PartitionedCall/Sigmoid_1", "StatefulPartitionedCall/lstm_model/lstm_2/zeros_1"], "attr": {"T": {"type": "DT_FLOAT"}}}, {"name": "StatefulPartitionedCall/lstm_model/lstm_2/PartitionedCall/mul_1", "op": "Mul", "input": ["StatefulPartitionedCall/lstm_model/lstm_2/PartitionedCall/Sigmoid", "StatefulPartitionedCall/lstm_model/lstm_2/PartitionedCall/Tanh"], "attr": {"T": {"type": "DT_FLOAT"}}}, {"name": "StatefulPartitionedCall/lstm_model/lstm_2/PartitionedCall/while/body/_192/while/split/split_dim", "op": "Const", "input": ["^StatefulPartitionedCall/lstm_model/lstm_2/PartitionedCall/while/loop_body_control/_233"], "attr": {"value": {"tensor": {"dtype": "DT_INT32", "tensorShape": {}}}, "dtype": {"type": "DT_INT32"}}}, {"name": "StatefulPartitionedCall/lstm_model/lstm_2/PartitionedCall/while/next_iteration/_256", "op": "NextIteration", "input": ["StatefulPartitionedCall/lstm_model/lstm_2/PartitionedCall/while/StatefulPartitionedCall/lstm_model/lstm_2/PartitionedCall/TensorArrayUnstack/TensorListFromTensor_switch/_228:1", "^StatefulPartitionedCall/lstm_model/lstm_2/PartitionedCall/while/loop_body_control/_233"], "attr": {"T": {"type": "DT_VARIANT"}}}, {"name": "StatefulPartitionedCall/lstm_model/lstm_2/PartitionedCall/while/body/_192/while/TensorArrayV2Read/TensorListGetItem/element_shape", "op": "Const", "input": ["^StatefulPartitionedCall/lstm_model/lstm_2/PartitionedCall/while/loop_body_control/_233"], "attr": {"dtype": {"type": "DT_INT32"}, "value": {"tensor": {"dtype": "DT_INT32", "tensorShape": {"dim": [{"size": "2"}]}}}}}, {"name": "StatefulPartitionedCall/lstm_model/lstm_2/PartitionedCall/while/next_iteration/_258", "op": "NextIteration", "input": ["StatefulPartitionedCall/lstm_model/lstm_2/PartitionedCall/while/Func/StatefulPartitionedCall/lstm_model/lstm_2/PartitionedCall/input/_42_switch/_230:1", "^StatefulPartitionedCall/lstm_model/lstm_2/PartitionedCall/while/loop_body_control/_233"], "attr": {"T": {"type": "DT_FLOAT"}}}, {"name": "StatefulPartitionedCall/lstm_model/lstm_2/PartitionedCall/while/next_iteration/_257", "op": "NextIteration", "input": ["StatefulPartitionedCall/lstm_model/lstm_2/PartitionedCall/while/StatefulPartitionedCall/lstm_model/lstm_2/PartitionedCall/TensorArrayUnstack_1/TensorListFromTensor_switch/_229:1", "^StatefulPartitionedCall/lstm_model/lstm_2/PartitionedCall/while/loop_body_control/_233"], "attr": {"T": {"type": "DT_VARIANT"}}}, {"name": "StatefulPartitionedCall/lstm_model/lstm_2/PartitionedCall/while/body/_192/while/TensorArrayV2Read_1/TensorListGetItem/element_shape", "op": "Const", "input": ["^StatefulPartitionedCall/lstm_model/lstm_2/PartitionedCall/while/loop_body_control/_233"], "attr": {"dtype": {"type": "DT_INT32"}, "value": {"tensor": {"dtype": "DT_INT32", "tensorShape": {"dim": [{"size": "2"}]}}}}}, {"name": "StatefulPartitionedCall/lstm_model/lstm_2/PartitionedCall/while/next_iteration/_259", "op": "NextIteration", "input": ["StatefulPartitionedCall/lstm_model/lstm_2/PartitionedCall/while/Func/StatefulPartitionedCall/lstm_model/lstm_2/PartitionedCall/input/_43_switch/_231:1", "^StatefulPartitionedCall/lstm_model/lstm_2/PartitionedCall/while/loop_body_control/_233"], "attr": {"T": {"type": "DT_FLOAT"}}}, {"name": "StatefulPartitionedCall/lstm_model/lstm_2/PartitionedCall/while/body/_192/while/MatMul_1", "op": "MatMul", "input": ["StatefulPartitionedCall/lstm_model/lstm_2/PartitionedCall/while/Func/StatefulPartitionedCall/lstm_model/lstm_2/PartitionedCall/input/_40_switch/_225:1", "StatefulPartitionedCall/lstm_model/lstm_2/PartitionedCall/while/Func/StatefulPartitionedCall/lstm_model/lstm_2/PartitionedCall/input/_43_switch/_231:1", "^StatefulPartitionedCall/lstm_model/lstm_2/PartitionedCall/while/loop_body_control/_233"], "device": "/device:CPU:0", "attr": {"T": {"type": "DT_FLOAT"}, "transpose_b": {"b": false}, "transpose_a": {"b": false}}}, {"name": "StatefulPartitionedCall/lstm_model/lstm_2/PartitionedCall/while/next_iteration/_260", "op": "NextIteration", "input": ["StatefulPartitionedCall/lstm_model/lstm_2/PartitionedCall/while/Func/StatefulPartitionedCall/lstm_model/lstm_2/PartitionedCall/input/_44_switch/_232:1", "^StatefulPartitionedCall/lstm_model/lstm_2/PartitionedCall/while/loop_body_control/_233"], "attr": {"T": {"type": "DT_FLOAT"}}}, {"name": "Func/StatefulPartitionedCall/lstm_model/lstm_2/PartitionedCall/while/body/_192/input/_365", "op": "Identity", "input": ["StatefulPartitionedCall/lstm_model/lstm_2/PartitionedCall/while/StatefulPartitionedCall/lstm_model/lstm_2/PartitionedCall/time_switch/_222:1", "^StatefulPartitionedCall/lstm_model/lstm_2/PartitionedCall/while/loop_body_control/_233"], "attr": {"T": {"type": "DT_INT32"}}}, {"name": "StatefulPartitionedCall/lstm_model/lstm_2/PartitionedCall/while/body/_192/while/add_2/y", "op": "Const", "input": ["^StatefulPartitionedCall/lstm_model/lstm_2/PartitionedCall/while/loop_body_control/_233"], "attr": {"value": {"tensor": {"dtype": "DT_INT32", "tensorShape": {}}}, "dtype": {"type": "DT_INT32"}}}, {"name": "StatefulPartitionedCall/lstm_model/lstm_2/PartitionedCall/while/body/_192/while/add_3/y", "op": "Const", "input": ["^StatefulPartitionedCall/lstm_model/lstm_2/PartitionedCall/while/loop_body_control/_233"], "attr": {"dtype": {"type": "DT_INT32"}, "value": {"tensor": {"dtype": "DT_INT32", "tensorShape": {}}}}}, {"name": "StatefulPartitionedCall/lstm_model/lstm_2/PartitionedCall/while/next_iteration/_255", "op": "NextIteration", "input": ["StatefulPartitionedCall/lstm_model/lstm_2/PartitionedCall/while/StatefulPartitionedCall/lstm_model/lstm_2/PartitionedCall/strided_slice_switch/_227:1", "^StatefulPartitionedCall/lstm_model/lstm_2/PartitionedCall/while/loop_body_control/_233"], "attr": {"T": {"type": "DT_INT32"}}}, {"name": "StatefulPartitionedCall/lstm_model/lstm_2/PartitionedCall/TensorArrayV2Stack/TensorListStack", "op": "TensorListStack", "input": ["StatefulPartitionedCall/lstm_model/lstm_2/PartitionedCall/while/exit/_237", "StatefulPartitionedCall/lstm_model/lstm_2/PartitionedCall/TensorArrayV2Stack/TensorListStack/element_shape"], "attr": {"num_elements": {"i": "-1"}, "element_dtype": {"type": "DT_FLOAT"}}}, {"name": "StatefulPartitionedCall/lstm_model/lstm_1/PartitionedCall/while/next_iteration/_183", "op": "NextIteration", "input": ["StatefulPartitionedCall/lstm_model/lstm_1/PartitionedCall/while/body/_122/while/SelectV2_1", "^StatefulPartitionedCall/lstm_model/lstm_1/PartitionedCall/while/loop_body_control/_163"], "attr": {"T": {"type": "DT_FLOAT"}}}, {"name": "StatefulPartitionedCall/lstm_model/lstm_1/PartitionedCall/while/next_iteration/_182", "op": "NextIteration", "input": ["StatefulPartitionedCall/lstm_model/lstm_1/PartitionedCall/while/body/_122/while/SelectV2", "^StatefulPartitionedCall/lstm_model/lstm_1/PartitionedCall/while/loop_body_control/_163"], "attr": {"T": {"type": "DT_FLOAT"}}}, {"name": "StatefulPartitionedCall/lstm_model/lstm_1/PartitionedCall/while/body/_122/while/TensorArrayV2Write/TensorListSetItem", "op": "TensorListSetItem", "input": ["StatefulPartitionedCall/lstm_model/lstm_1/PartitionedCall/while/StatefulPartitionedCall/lstm_model/lstm_1/PartitionedCall/TensorArrayV2_1_switch/_153:1", "Func/StatefulPartitionedCall/lstm_model/lstm_1/PartitionedCall/while/body/_122/input/_322", "StatefulPartitionedCall/lstm_model/lstm_1/PartitionedCall/while/body/_122/while/SelectV2"], "attr": {"element_dtype": {"type": "DT_FLOAT"}}, "experimentalType": {"typeId": "TFT_PRODUCT", "args": [{"typeId": "TFT_ARRAY", "args": [{"typeId": "TFT_TENSOR", "args": [{"typeId": "TFT_FLOAT"}]}]}]}}, {"name": "StatefulPartitionedCall/lstm_model/lstm_2/PartitionedCall/add_1", "op": "AddV2", "input": ["StatefulPartitionedCall/lstm_model/lstm_2/PartitionedCall/mul", "StatefulPartitionedCall/lstm_model/lstm_2/PartitionedCall/mul_1"], "attr": {"T": {"type": "DT_FLOAT"}}}, {"name": "StatefulPartitionedCall/lstm_model/lstm_2/PartitionedCall/while/body/_192/while/TensorArrayV2Read/TensorListGetItem", "op": "TensorListGetItem", "input": ["StatefulPartitionedCall/lstm_model/lstm_2/PartitionedCall/while/StatefulPartitionedCall/lstm_model/lstm_2/PartitionedCall/TensorArrayUnstack/TensorListFromTensor_switch/_228:1", "Func/StatefulPartitionedCall/lstm_model/lstm_2/PartitionedCall/while/body/_192/input/_365", "StatefulPartitionedCall/lstm_model/lstm_2/PartitionedCall/while/body/_192/while/TensorArrayV2Read/TensorListGetItem/element_shape"], "attr": {"element_dtype": {"type": "DT_FLOAT"}}}, {"name": "StatefulPartitionedCall/lstm_model/lstm_2/PartitionedCall/while/body/_192/while/TensorArrayV2Read_1/TensorListGetItem", "op": "TensorListGetItem", "input": ["StatefulPartitionedCall/lstm_model/lstm_2/PartitionedCall/while/StatefulPartitionedCall/lstm_model/lstm_2/PartitionedCall/TensorArrayUnstack_1/TensorListFromTensor_switch/_229:1", "Func/StatefulPartitionedCall/lstm_model/lstm_2/PartitionedCall/while/body/_192/input/_365", "StatefulPartitionedCall/lstm_model/lstm_2/PartitionedCall/while/body/_192/while/TensorArrayV2Read_1/TensorListGetItem/element_shape"], "attr": {"element_dtype": {"type": "DT_BOOL"}}}, {"name": "StatefulPartitionedCall/lstm_model/lstm_2/PartitionedCall/while/body/_192/while/add_2", "op": "AddV2", "input": ["Func/StatefulPartitionedCall/lstm_model/lstm_2/PartitionedCall/while/body/_192/input/_365", "StatefulPartitionedCall/lstm_model/lstm_2/PartitionedCall/while/body/_192/while/add_2/y"], "attr": {"T": {"type": "DT_INT32"}}}, {"name": "StatefulPartitionedCall/lstm_model/lstm_2/PartitionedCall/while/body/_192/while/add_3", "op": "AddV2", "input": ["StatefulPartitionedCall/lstm_model/lstm_2/PartitionedCall/while/StatefulPartitionedCall/lstm_model/lstm_2/PartitionedCall/while/loop_counter_switch/_220:1", "StatefulPartitionedCall/lstm_model/lstm_2/PartitionedCall/while/body/_192/while/add_3/y"], "attr": {"T": {"type": "DT_INT32"}}}, {"name": "StatefulPartitionedCall/lstm_model/lstm_2/PartitionedCall/transpose_2", "op": "Transpose", "input": ["StatefulPartitionedCall/lstm_model/lstm_2/PartitionedCall/TensorArrayV2Stack/TensorListStack", "StatefulPartitionedCall/lstm_model/lstm_2/PartitionedCall/transpose_2/perm"], "attr": {"Tperm": {"type": "DT_INT32"}, "T": {"type": "DT_FLOAT"}}}, {"name": "StatefulPartitionedCall/lstm_model/lstm_1/PartitionedCall/while/next_iteration/_181", "op": "NextIteration", "input": ["StatefulPartitionedCall/lstm_model/lstm_1/PartitionedCall/while/body/_122/while/TensorArrayV2Write/TensorListSetItem", "^StatefulPartitionedCall/lstm_model/lstm_1/PartitionedCall/while/loop_body_control/_163"], "attr": {"T": {"type": "DT_VARIANT"}}}, {"name": "StatefulPartitionedCall/lstm_model/lstm_2/PartitionedCall/Tanh_1", "op": "Tanh", "input": ["StatefulPartitionedCall/lstm_model/lstm_2/PartitionedCall/add_1"], "attr": {"T": {"type": "DT_FLOAT"}}}, {"name": "StatefulPartitionedCall/lstm_model/lstm_2/PartitionedCall/while/body/_192/while/MatMul", "op": "MatMul", "input": ["StatefulPartitionedCall/lstm_model/lstm_2/PartitionedCall/while/body/_192/while/TensorArrayV2Read/TensorListGetItem", "StatefulPartitionedCall/lstm_model/lstm_2/PartitionedCall/while/Func/StatefulPartitionedCall/lstm_model/lstm_2/PartitionedCall/input/_42_switch/_230:1"], "device": "/device:CPU:0", "attr": {"T": {"type": "DT_FLOAT"}, "transpose_a": {"b": false}, "transpose_b": {"b": false}}}, {"name": "StatefulPartitionedCall/lstm_model/lstm_2/PartitionedCall/while/next_iteration/_250", "op": "NextIteration", "input": ["StatefulPartitionedCall/lstm_model/lstm_2/PartitionedCall/while/body/_192/while/add_2", "^StatefulPartitionedCall/lstm_model/lstm_2/PartitionedCall/while/loop_body_control/_233"], "attr": {"T": {"type": "DT_INT32"}}}, {"name": "StatefulPartitionedCall/lstm_model/lstm_2/PartitionedCall/while/next_iteration/_248", "op": "NextIteration", "input": ["StatefulPartitionedCall/lstm_model/lstm_2/PartitionedCall/while/body/_192/while/add_3", "^StatefulPartitionedCall/lstm_model/lstm_2/PartitionedCall/while/loop_body_control/_233"], "attr": {"T": {"type": "DT_INT32"}}}, {"name": "StatefulPartitionedCall/lstm_model/dense/Tensordot/Shape", "op": "Shape", "input": ["StatefulPartitionedCall/lstm_model/lstm_2/PartitionedCall/transpose_2"], "attr": {"T": {"type": "DT_FLOAT"}, "out_type": {"type": "DT_INT32"}}}, {"name": "StatefulPartitionedCall/lstm_model/lstm_2/PartitionedCall/mul_2", "op": "Mul", "input": ["StatefulPartitionedCall/lstm_model/lstm_2/PartitionedCall/Sigmoid_2", "StatefulPartitionedCall/lstm_model/lstm_2/PartitionedCall/Tanh_1"], "attr": {"T": {"type": "DT_FLOAT"}}}, {"name": "StatefulPartitionedCall/lstm_model/lstm_2/PartitionedCall/while/body/_192/while/add", "op": "AddV2", "input": ["StatefulPartitionedCall/lstm_model/lstm_2/PartitionedCall/while/body/_192/while/MatMul", "StatefulPartitionedCall/lstm_model/lstm_2/PartitionedCall/while/body/_192/while/MatMul_1"], "attr": {"T": {"type": "DT_FLOAT"}}}, {"name": "StatefulPartitionedCall/lstm_model/dense/Tensordot/GatherV2_1", "op": "GatherV2", "input": ["StatefulPartitionedCall/lstm_model/dense/Tensordot/Shape", "StatefulPartitionedCall/lstm_model/dense/Tensordot/axes", "StatefulPartitionedCall/lstm_model/dense/Tensordot/GatherV2_1/axis"], "attr": {"Taxis": {"type": "DT_INT32"}, "batch_dims": {"i": "0"}, "Tindices": {"type": "DT_INT32"}, "Tparams": {"type": "DT_INT32"}}}, {"name": "StatefulPartitionedCall/lstm_model/dense/Tensordot/GatherV2", "op": "GatherV2", "input": ["StatefulPartitionedCall/lstm_model/dense/Tensordot/Shape", "StatefulPartitionedCall/lstm_model/dense/Tensordot/free", "StatefulPartitionedCall/lstm_model/dense/Tensordot/GatherV2/axis"], "attr": {"batch_dims": {"i": "0"}, "Tparams": {"type": "DT_INT32"}, "Tindices": {"type": "DT_INT32"}, "Taxis": {"type": "DT_INT32"}}}, {"name": "StatefulPartitionedCall/lstm_model/lstm_2/PartitionedCall/zeros_like", "op": "ZerosLike", "input": ["StatefulPartitionedCall/lstm_model/lstm_2/PartitionedCall/mul_2"], "attr": {"T": {"type": "DT_FLOAT"}}}, {"name": "StatefulPartitionedCall/lstm_model/lstm_2/PartitionedCall/while/body/_192/while/BiasAdd", "op": "BiasAdd", "input": ["StatefulPartitionedCall/lstm_model/lstm_2/PartitionedCall/while/body/_192/while/add", "StatefulPartitionedCall/lstm_model/lstm_2/PartitionedCall/while/Func/StatefulPartitionedCall/lstm_model/lstm_2/PartitionedCall/input/_44_switch/_232:1"], "attr": {"data_format": {"s": "TkhXQw=="}, "T": {"type": "DT_FLOAT"}}}, {"name": "StatefulPartitionedCall/lstm_model/dense/Tensordot/Prod_1", "op": "Prod", "input": ["StatefulPartitionedCall/lstm_model/dense/Tensordot/GatherV2_1", "StatefulPartitionedCall/lstm_model/dense/Tensordot/Const_1"], "attr": {"Tidx": {"type": "DT_INT32"}, "T": {"type": "DT_INT32"}, "keep_dims": {"b": false}}}, {"name": "StatefulPartitionedCall/lstm_model/dense/Tensordot/Prod", "op": "Prod", "input": ["StatefulPartitionedCall/lstm_model/dense/Tensordot/GatherV2", "StatefulPartitionedCall/lstm_model/dense/Tensordot/Const"], "attr": {"Tidx": {"type": "DT_INT32"}, "keep_dims": {"b": false}, "T": {"type": "DT_INT32"}}}, {"name": "StatefulPartitionedCall/lstm_model/dense/Tensordot/concat_1", "op": "ConcatV2", "input": ["StatefulPartitionedCall/lstm_model/dense/Tensordot/GatherV2", "StatefulPartitionedCall/lstm_model/dense/Tensordot/Const_2", "StatefulPartitionedCall/lstm_model/dense/Tensordot/concat_1/axis"], "attr": {"T": {"type": "DT_INT32"}, "N": {"i": "2"}, "Tidx": {"type": "DT_INT32"}}}, {"name": "StatefulPartitionedCall/lstm_model/lstm_2/PartitionedCall/while/enter/_197", "op": "Enter", "input": ["StatefulPartitionedCall/lstm_model/lstm_2/PartitionedCall/zeros_like"], "attr": {"T": {"type": "DT_FLOAT"}, "frame_name": {"s": "U3RhdGVmdWxQYXJ0aXRpb25lZENhbGwvbHN0bV9tb2RlbC9sc3RtXzIvUGFydGl0aW9uZWRDYWxsL3doaWxl"}, "parallel_iterations": {"i": "32"}, "is_constant": {"b": false}}}, {"name": "StatefulPartitionedCall/lstm_model/lstm_2/PartitionedCall/while/body/_192/while/split", "op": "Split", "input": ["StatefulPartitionedCall/lstm_model/lstm_2/PartitionedCall/while/body/_192/while/split/split_dim", "StatefulPartitionedCall/lstm_model/lstm_2/PartitionedCall/while/body/_192/while/BiasAdd"], "attr": {"T": {"type": "DT_FLOAT"}, "num_split": {"i": "4"}}}, {"name": "StatefulPartitionedCall/lstm_model/dense/Tensordot/stack", "op": "Pack", "input": ["StatefulPartitionedCall/lstm_model/dense/Tensordot/Prod", "StatefulPartitionedCall/lstm_model/dense/Tensordot/Prod_1"], "attr": {"T": {"type": "DT_INT32"}, "axis": {"i": "0"}, "N": {"i": "2"}}}, {"name": "StatefulPartitionedCall/lstm_model/lstm_2/PartitionedCall/while/merge/_210", "op": "Merge", "input": ["StatefulPartitionedCall/lstm_model/lstm_2/PartitionedCall/while/enter/_197", "StatefulPartitionedCall/lstm_model/lstm_2/PartitionedCall/while/next_iteration/_252"], "attr": {"T": {"type": "DT_FLOAT"}, "N": {"i": "2"}}}, {"name": "StatefulPartitionedCall/lstm_model/lstm_2/PartitionedCall/while/body/_192/while/Sigmoid", "op": "Sigmoid", "input": ["StatefulPartitionedCall/lstm_model/lstm_2/PartitionedCall/while/body/_192/while/split"], "attr": {"T": {"type": "DT_FLOAT"}}}, {"name": "StatefulPartitionedCall/lstm_model/lstm_2/PartitionedCall/while/body/_192/while/Sigmoid_1", "op": "Sigmoid", "input": ["StatefulPartitionedCall/lstm_model/lstm_2/PartitionedCall/while/body/_192/while/split:1"], "attr": {"T": {"type": "DT_FLOAT"}}}, {"name": "StatefulPartitionedCall/lstm_model/lstm_2/PartitionedCall/while/body/_192/while/Tanh", "op": "Tanh", "input": ["StatefulPartitionedCall/lstm_model/lstm_2/PartitionedCall/while/body/_192/while/split:2"], "attr": {"T": {"type": "DT_FLOAT"}}}, {"name": "StatefulPartitionedCall/lstm_model/lstm_2/PartitionedCall/while/body/_192/while/Sigmoid_2", "op": "Sigmoid", "input": ["StatefulPartitionedCall/lstm_model/lstm_2/PartitionedCall/while/body/_192/while/split:3"], "attr": {"T": {"type": "DT_FLOAT"}}}, {"name": "StatefulPartitionedCall/lstm_model/dense/Tensordot/Reshape", "op": "Reshape", "input": ["StatefulPartitionedCall/lstm_model/lstm_2/PartitionedCall/transpose_2", "StatefulPartitionedCall/lstm_model/dense/Tensordot/stack"], "attr": {"Tshape": {"type": "DT_INT32"}, "T": {"type": "DT_FLOAT"}}}, {"name": "StatefulPartitionedCall/lstm_model/lstm_2/PartitionedCall/while/StatefulPartitionedCall/lstm_model/lstm_2/PartitionedCall/zeros_like_switch/_224", "op": "Switch", "input": ["StatefulPartitionedCall/lstm_model/lstm_2/PartitionedCall/while/merge/_210", "StatefulPartitionedCall/lstm_model/lstm_2/PartitionedCall/while/LoopCond/_219"], "attr": {"T": {"type": "DT_FLOAT"}}}, {"name": "StatefulPartitionedCall/lstm_model/lstm_2/PartitionedCall/while/body/_192/while/mul", "op": "Mul", "input": ["StatefulPartitionedCall/lstm_model/lstm_2/PartitionedCall/while/body/_192/while/Sigmoid_1", "StatefulPartitionedCall/lstm_model/lstm_2/PartitionedCall/while/Func/StatefulPartitionedCall/lstm_model/lstm_2/PartitionedCall/input/_41_switch/_226:1"], "attr": {"T": {"type": "DT_FLOAT"}}}, {"name": "StatefulPartitionedCall/lstm_model/lstm_2/PartitionedCall/while/body/_192/while/mul_1", "op": "Mul", "input": ["StatefulPartitionedCall/lstm_model/lstm_2/PartitionedCall/while/body/_192/while/Sigmoid", "StatefulPartitionedCall/lstm_model/lstm_2/PartitionedCall/while/body/_192/while/Tanh"], "attr": {"T": {"type": "DT_FLOAT"}}}, {"name": "StatefulPartitionedCall/lstm_model/dense/Tensordot/MatMul", "op": "MatMul", "input": ["StatefulPartitionedCall/lstm_model/dense/Tensordot/Reshape", "StatefulPartitionedCall/lstm_model/dense/Tensordot/ReadVariableOp"], "device": "/device:CPU:0", "attr": {"transpose_b": {"b": false}, "transpose_a": {"b": false}, "T": {"type": "DT_FLOAT"}}}, {"name": "StatefulPartitionedCall/lstm_model/lstm_2/PartitionedCall/while/body/_192/while/add_1", "op": "AddV2", "input": ["StatefulPartitionedCall/lstm_model/lstm_2/PartitionedCall/while/body/_192/while/mul", "StatefulPartitionedCall/lstm_model/lstm_2/PartitionedCall/while/body/_192/while/mul_1"], "attr": {"T": {"type": "DT_FLOAT"}}}, {"name": "StatefulPartitionedCall/lstm_model/dense/Tensordot", "op": "Reshape", "input": ["StatefulPartitionedCall/lstm_model/dense/Tensordot/MatMul", "StatefulPartitionedCall/lstm_model/dense/Tensordot/concat_1"], "attr": {"Tshape": {"type": "DT_INT32"}, "T": {"type": "DT_FLOAT"}}}, {"name": "StatefulPartitionedCall/lstm_model/lstm_2/PartitionedCall/while/body/_192/while/Tanh_1", "op": "Tanh", "input": ["StatefulPartitionedCall/lstm_model/lstm_2/PartitionedCall/while/body/_192/while/add_1"], "attr": {"T": {"type": "DT_FLOAT"}}}, {"name": "StatefulPartitionedCall/lstm_model/lstm_2/PartitionedCall/while/body/_192/while/SelectV2_2", "op": "SelectV2", "input": ["StatefulPartitionedCall/lstm_model/lstm_2/PartitionedCall/while/body/_192/while/TensorArrayV2Read_1/TensorListGetItem", "StatefulPartitionedCall/lstm_model/lstm_2/PartitionedCall/while/body/_192/while/add_1", "StatefulPartitionedCall/lstm_model/lstm_2/PartitionedCall/while/Func/StatefulPartitionedCall/lstm_model/lstm_2/PartitionedCall/input/_41_switch/_226:1"], "attr": {"T": {"type": "DT_FLOAT"}}}, {"name": "StatefulPartitionedCall/lstm_model/dense/BiasAdd", "op": "BiasAdd", "input": ["StatefulPartitionedCall/lstm_model/dense/Tensordot", "StatefulPartitionedCall/lstm_model/dense/BiasAdd/ReadVariableOp"], "attr": {"data_format": {"s": "TkhXQw=="}, "T": {"type": "DT_FLOAT"}}}, {"name": "StatefulPartitionedCall/lstm_model/lstm_2/PartitionedCall/while/body/_192/while/mul_2", "op": "Mul", "input": ["StatefulPartitionedCall/lstm_model/lstm_2/PartitionedCall/while/body/_192/while/Sigmoid_2", "StatefulPartitionedCall/lstm_model/lstm_2/PartitionedCall/while/body/_192/while/Tanh_1"], "attr": {"T": {"type": "DT_FLOAT"}}}, {"name": "StatefulPartitionedCall/lstm_model/lstm_2/PartitionedCall/while/next_iteration/_254", "op": "NextIteration", "input": ["StatefulPartitionedCall/lstm_model/lstm_2/PartitionedCall/while/body/_192/while/SelectV2_2", "^StatefulPartitionedCall/lstm_model/lstm_2/PartitionedCall/while/loop_body_control/_233"], "attr": {"T": {"type": "DT_FLOAT"}}}, {"name": "Identity", "op": "Identity", "input": ["StatefulPartitionedCall/lstm_model/dense/BiasAdd", "^StatefulPartitionedCall/lstm_model/embedding/embedding_lookup"], "attr": {"T": {"type": "DT_FLOAT"}}}, {"name": "StatefulPartitionedCall/lstm_model/lstm_2/PartitionedCall/while/body/_192/while/SelectV2_1", "op": "SelectV2", "input": ["StatefulPartitionedCall/lstm_model/lstm_2/PartitionedCall/while/body/_192/while/TensorArrayV2Read_1/TensorListGetItem", "StatefulPartitionedCall/lstm_model/lstm_2/PartitionedCall/while/body/_192/while/mul_2", "StatefulPartitionedCall/lstm_model/lstm_2/PartitionedCall/while/Func/StatefulPartitionedCall/lstm_model/lstm_2/PartitionedCall/input/_40_switch/_225:1"], "attr": {"T": {"type": "DT_FLOAT"}}}, {"name": "StatefulPartitionedCall/lstm_model/lstm_2/PartitionedCall/while/body/_192/while/SelectV2", "op": "SelectV2", "input": ["StatefulPartitionedCall/lstm_model/lstm_2/PartitionedCall/while/body/_192/while/TensorArrayV2Read_1/TensorListGetItem", "StatefulPartitionedCall/lstm_model/lstm_2/PartitionedCall/while/body/_192/while/mul_2", "StatefulPartitionedCall/lstm_model/lstm_2/PartitionedCall/while/StatefulPartitionedCall/lstm_model/lstm_2/PartitionedCall/zeros_like_switch/_224:1"], "attr": {"T": {"type": "DT_FLOAT"}}}, {"name": "StatefulPartitionedCall/lstm_model/lstm_2/PartitionedCall/while/next_iteration/_253", "op": "NextIteration", "input": ["StatefulPartitionedCall/lstm_model/lstm_2/PartitionedCall/while/body/_192/while/SelectV2_1", "^StatefulPartitionedCall/lstm_model/lstm_2/PartitionedCall/while/loop_body_control/_233"], "attr": {"T": {"type": "DT_FLOAT"}}}, {"name": "StatefulPartitionedCall/lstm_model/lstm_2/PartitionedCall/while/next_iteration/_252", "op": "NextIteration", "input": ["StatefulPartitionedCall/lstm_model/lstm_2/PartitionedCall/while/body/_192/while/SelectV2", "^StatefulPartitionedCall/lstm_model/lstm_2/PartitionedCall/while/loop_body_control/_233"], "attr": {"T": {"type": "DT_FLOAT"}}}, {"name": "StatefulPartitionedCall/lstm_model/lstm_2/PartitionedCall/while/body/_192/while/TensorArrayV2Write/TensorListSetItem", "op": "TensorListSetItem", "input": ["StatefulPartitionedCall/lstm_model/lstm_2/PartitionedCall/while/StatefulPartitionedCall/lstm_model/lstm_2/PartitionedCall/TensorArrayV2_1_switch/_223:1", "Func/StatefulPartitionedCall/lstm_model/lstm_2/PartitionedCall/while/body/_192/input/_365", "StatefulPartitionedCall/lstm_model/lstm_2/PartitionedCall/while/body/_192/while/SelectV2"], "attr": {"element_dtype": {"type": "DT_FLOAT"}}, "experimentalType": {"typeId": "TFT_PRODUCT", "args": [{"typeId": "TFT_ARRAY", "args": [{"typeId": "TFT_TENSOR", "args": [{"typeId": "TFT_FLOAT"}]}]}]}}, {"name": "StatefulPartitionedCall/lstm_model/lstm_2/PartitionedCall/while/next_iteration/_251", "op": "NextIteration", "input": ["StatefulPartitionedCall/lstm_model/lstm_2/PartitionedCall/while/body/_192/while/TensorArrayV2Write/TensorListSetItem", "^StatefulPartitionedCall/lstm_model/lstm_2/PartitionedCall/while/loop_body_control/_233"], "attr": {"T": {"type": "DT_VARIANT"}}}], "library": {}, "versions": {"producer": 898}}, "weightsManifest": [{"paths": ["group1-shard1of1.bin"], "weights": [{"name": "StatefulPartitionedCall/lstm_model/dense/Tensordot/Const", "shape": [1], "dtype": "int32"}, {"name": "StatefulPartitionedCall/lstm_model/dense/Tensordot/axes", "shape": [1], "dtype": "int32"}, {"name": "StatefulPartitionedCall/lstm_model/dense/Tensordot/GatherV2_1/axis", "shape": [], "dtype": "int32"}, {"name": "StatefulPartitionedCall/lstm_model/dense/Tensordot/Const_1", "shape": [1], "dtype": "int32"}, {"name": "StatefulPartitionedCall/lstm_model/dense/Tensordot/ReadVariableOp", "shape": [128, 93], "dtype": "float32"}, {"name": "StatefulPartitionedCall/lstm_model/lstm_2/PartitionedCall/TensorArrayV2_1/element_shape", "shape": [2], "dtype": "int32"}, {"name": "StatefulPartitionedCall/lstm_model/lstm_2/PartitionedCall/TensorArrayUnstack/TensorListFromTensor/element_shape", "shape": [2], "dtype": "int32"}, {"name": "StatefulPartitionedCall/lstm_model/lstm_2/PartitionedCall/ExpandDims/dim", "shape": [], "dtype": "int32"}, {"name": "StatefulPartitionedCall/lstm_model/lstm_2/PartitionedCall/transpose_1/perm", "shape": [3], "dtype": "int32"}, {"name": "StatefulPartitionedCall/lstm_model/lstm_2/PartitionedCall/TensorArrayUnstack_1/TensorListFromTensor/element_shape", "shape": [2], "dtype": "int32"}, {"name": "StatefulPartitionedCall/lstm_model/lstm_2/zeros_1/packed/1", "shape": [], "dtype": "int32"}, {"name": "StatefulPartitionedCall/lstm_model/lstm_2/zeros_1/Const", "shape": [], "dtype": "float32"}, {"name": "StatefulPartitionedCall/lstm_model/lstm_2/PartitionedCall/split/split_dim", "shape": [], "dtype": "int32"}, {"name": "StatefulPartitionedCall/lstm_model/lstm_2/PartitionedCall/strided_slice_1/stack", "shape": [1], "dtype": "int32"}, {"name": "StatefulPartitionedCall/lstm_model/lstm_2/PartitionedCall/strided_slice_1/stack_1", "shape": [1], "dtype": "int32"}, {"name": "StatefulPartitionedCall/lstm_model/lstm_2/PartitionedCall/strided_slice_1/stack_2", "shape": [1], "dtype": "int32"}, {"name": "StatefulPartitionedCall/lstm_model/lstm_2/Read/ReadVariableOp", "shape": [128, 512], "dtype": "float32"}, {"name": "StatefulPartitionedCall/lstm_model/lstm_2/strided_slice/stack", "shape": [1], "dtype": "int32"}, {"name": "StatefulPartitionedCall/lstm_model/lstm_2/strided_slice/stack_1", "shape": [1], "dtype": "int32"}, {"name": "StatefulPartitionedCall/lstm_model/lstm_2/strided_slice/stack_2", "shape": [1], "dtype": "int32"}, {"name": "StatefulPartitionedCall/lstm_model/lstm_2/zeros/packed/1", "shape": [], "dtype": "int32"}, {"name": "StatefulPartitionedCall/lstm_model/lstm_2/zeros/Const", "shape": [], "dtype": "float32"}, {"name": "StatefulPartitionedCall/lstm_model/lstm_2/Read_1/ReadVariableOp", "shape": [128, 512], "dtype": "float32"}, {"name": "StatefulPartitionedCall/lstm_model/lstm_2/Read_2/ReadVariableOp", "shape": [512], "dtype": "float32"}, {"name": "StatefulPartitionedCall/lstm_model/lstm_2/PartitionedCall/time", "shape": [], "dtype": "int32"}, {"name": "StatefulPartitionedCall/lstm_model/lstm_1/PartitionedCall/TensorArrayV2_1/element_shape", "shape": [2], "dtype": "int32"}, {"name": "StatefulPartitionedCall/lstm_model/lstm_1/PartitionedCall/TensorArrayUnstack/TensorListFromTensor/element_shape", "shape": [2], "dtype": "int32"}, {"name": "StatefulPartitionedCall/lstm_model/lstm_1/PartitionedCall/ExpandDims/dim", "shape": [], "dtype": "int32"}, {"name": "StatefulPartitionedCall/lstm_model/lstm_1/PartitionedCall/transpose_1/perm", "shape": [3], "dtype": "int32"}, {"name": "StatefulPartitionedCall/lstm_model/lstm_1/PartitionedCall/TensorArrayUnstack_1/TensorListFromTensor/element_shape", "shape": [2], "dtype": "int32"}, {"name": "StatefulPartitionedCall/lstm_model/lstm_1/zeros_1/packed/1", "shape": [], "dtype": "int32"}, {"name": "StatefulPartitionedCall/lstm_model/lstm_1/zeros_1/Const", "shape": [], "dtype": "float32"}, {"name": "StatefulPartitionedCall/lstm_model/lstm_1/PartitionedCall/split/split_dim", "shape": [], "dtype": "int32"}, {"name": "StatefulPartitionedCall/lstm_model/lstm_1/PartitionedCall/strided_slice_1/stack", "shape": [1], "dtype": "int32"}, {"name": "StatefulPartitionedCall/lstm_model/lstm_1/PartitionedCall/strided_slice_1/stack_1", "shape": [1], "dtype": "int32"}, {"name": "StatefulPartitionedCall/lstm_model/lstm_1/PartitionedCall/strided_slice_1/stack_2", "shape": [1], "dtype": "int32"}, {"name": "StatefulPartitionedCall/lstm_model/lstm_1/Read/ReadVariableOp", "shape": [128, 512], "dtype": "float32"}, {"name": "StatefulPartitionedCall/lstm_model/lstm_1/strided_slice/stack", "shape": [1], "dtype": "int32"}, {"name": "StatefulPartitionedCall/lstm_model/lstm_1/strided_slice/stack_1", "shape": [1], "dtype": "int32"}, {"name": "StatefulPartitionedCall/lstm_model/lstm_1/strided_slice/stack_2", "shape": [1], "dtype": "int32"}, {"name": "StatefulPartitionedCall/lstm_model/lstm_1/zeros/packed/1", "shape": [], "dtype": "int32"}, {"name": "StatefulPartitionedCall/lstm_model/lstm_1/zeros/Const", "shape": [], "dtype": "float32"}, {"name": "StatefulPartitionedCall/lstm_model/lstm_1/Read_1/ReadVariableOp", "shape": [128, 512], "dtype": "float32"}, {"name": "StatefulPartitionedCall/lstm_model/lstm_1/Read_2/ReadVariableOp", "shape": [512], "dtype": "float32"}, {"name": "StatefulPartitionedCall/lstm_model/lstm_1/PartitionedCall/time", "shape": [], "dtype": "int32"}, {"name": "StatefulPartitionedCall/lstm_model/lstm/PartitionedCall/TensorArrayV2_1/element_shape", "shape": [2], "dtype": "int32"}, {"name": "StatefulPartitionedCall/lstm_model/lstm/PartitionedCall/TensorArrayUnstack/TensorListFromTensor/element_shape", "shape": [2], "dtype": "int32"}, {"name": "StatefulPartitionedCall/lstm_model/embedding/NotEqual/y", "shape": [], "dtype": "float32"}, {"name": "StatefulPartitionedCall/lstm_model/lstm/PartitionedCall/ExpandDims/dim", "shape": [], "dtype": "int32"}, {"name": "StatefulPartitionedCall/lstm_model/lstm/PartitionedCall/transpose_1/perm", "shape": [3], "dtype": "int32"}, {"name": "StatefulPartitionedCall/lstm_model/lstm/PartitionedCall/TensorArrayUnstack_1/TensorListFromTensor/element_shape", "shape": [2], "dtype": "int32"}, {"name": "StatefulPartitionedCall/lstm_model/lstm/zeros_1/packed/1", "shape": [], "dtype": "int32"}, {"name": "StatefulPartitionedCall/lstm_model/lstm/zeros_1/Const", "shape": [], "dtype": "float32"}, {"name": "StatefulPartitionedCall/lstm_model/lstm/PartitionedCall/split/split_dim", "shape": [], "dtype": "int32"}, {"name": "StatefulPartitionedCall/lstm_model/lstm/PartitionedCall/strided_slice_1/stack", "shape": [1], "dtype": "int32"}, {"name": "StatefulPartitionedCall/lstm_model/lstm/PartitionedCall/strided_slice_1/stack_1", "shape": [1], "dtype": "int32"}, {"name": "StatefulPartitionedCall/lstm_model/lstm/PartitionedCall/strided_slice_1/stack_2", "shape": [1], "dtype": "int32"}, {"name": "StatefulPartitionedCall/lstm_model/lstm/Read/ReadVariableOp", "shape": [128, 512], "dtype": "float32"}, {"name": "StatefulPartitionedCall/lstm_model/lstm/strided_slice/stack", "shape": [1], "dtype": "int32"}, {"name": "StatefulPartitionedCall/lstm_model/lstm/strided_slice/stack_1", "shape": [1], "dtype": "int32"}, {"name": "StatefulPartitionedCall/lstm_model/lstm/strided_slice/stack_2", "shape": [1], "dtype": "int32"}, {"name": "StatefulPartitionedCall/lstm_model/lstm/zeros/packed/1", "shape": [], "dtype": "int32"}, {"name": "StatefulPartitionedCall/lstm_model/lstm/zeros/Const", "shape": [], "dtype": "float32"}, {"name": "StatefulPartitionedCall/lstm_model/lstm/Read_1/ReadVariableOp", "shape": [128, 512], "dtype": "float32"}, {"name": "StatefulPartitionedCall/lstm_model/lstm/Read_2/ReadVariableOp", "shape": [512], "dtype": "float32"}, {"name": "StatefulPartitionedCall/lstm_model/lstm/PartitionedCall/time", "shape": [], "dtype": "int32"}, {"name": "StatefulPartitionedCall/lstm_model/lstm/ones_like/Const", "shape": [], "dtype": "float32"}, {"name": "StatefulPartitionedCall/lstm_model/lstm/PartitionedCall/transpose/perm", "shape": [3], "dtype": "int32"}, {"name": "StatefulPartitionedCall/lstm_model/lstm/PartitionedCall/strided_slice/stack", "shape": [1], "dtype": "int32"}, {"name": "StatefulPartitionedCall/lstm_model/lstm/PartitionedCall/strided_slice/stack_1", "shape": [1], "dtype": "int32"}, {"name": "StatefulPartitionedCall/lstm_model/lstm/PartitionedCall/strided_slice/stack_2", "shape": [1], "dtype": "int32"}, {"name": "StatefulPartitionedCall/lstm_model/lstm/PartitionedCall/while/loop_counter", "shape": [], "dtype": "int32"}, {"name": "StatefulPartitionedCall/lstm_model/lstm/PartitionedCall/TensorArrayV2Stack/TensorListStack/element_shape", "shape": [2], "dtype": "int32"}, {"name": "StatefulPartitionedCall/lstm_model/lstm/PartitionedCall/transpose_2/perm", "shape": [3], "dtype": "int32"}, {"name": "StatefulPartitionedCall/lstm_model/lstm_1/PartitionedCall/strided_slice/stack", "shape": [1], "dtype": "int32"}, {"name": "StatefulPartitionedCall/lstm_model/lstm_1/PartitionedCall/strided_slice/stack_1", "shape": [1], "dtype": "int32"}, {"name": "StatefulPartitionedCall/lstm_model/lstm_1/PartitionedCall/strided_slice/stack_2", "shape": [1], "dtype": "int32"}, {"name": "StatefulPartitionedCall/lstm_model/lstm_1/PartitionedCall/while/loop_counter", "shape": [], "dtype": "int32"}, {"name": "StatefulPartitionedCall/lstm_model/lstm_1/PartitionedCall/TensorArrayV2Stack/TensorListStack/element_shape", "shape": [2], "dtype": "int32"}, {"name": "StatefulPartitionedCall/lstm_model/lstm_1/PartitionedCall/transpose_2/perm", "shape": [3], "dtype": "int32"}, {"name": "StatefulPartitionedCall/lstm_model/lstm_2/PartitionedCall/strided_slice/stack", "shape": [1], "dtype": "int32"}, {"name": "StatefulPartitionedCall/lstm_model/lstm_2/PartitionedCall/strided_slice/stack_1", "shape": [1], "dtype": "int32"}, {"name": "StatefulPartitionedCall/lstm_model/lstm_2/PartitionedCall/strided_slice/stack_2", "shape": [1], "dtype": "int32"}, {"name": "StatefulPartitionedCall/lstm_model/lstm_2/PartitionedCall/while/loop_counter", "shape": [], "dtype": "int32"}, {"name": "StatefulPartitionedCall/lstm_model/lstm_2/PartitionedCall/TensorArrayV2Stack/TensorListStack/element_shape", "shape": [2], "dtype": "int32"}, {"name": "StatefulPartitionedCall/lstm_model/lstm_2/PartitionedCall/transpose_2/perm", "shape": [3], "dtype": "int32"}, {"name": "StatefulPartitionedCall/lstm_model/dense/Tensordot/free", "shape": [2], "dtype": "int32"}, {"name": "StatefulPartitionedCall/lstm_model/dense/Tensordot/GatherV2/axis", "shape": [], "dtype": "int32"}, {"name": "StatefulPartitionedCall/lstm_model/dense/Tensordot/Const_2", "shape": [1], "dtype": "int32"}, {"name": "StatefulPartitionedCall/lstm_model/dense/Tensordot/concat_1/axis", "shape": [], "dtype": "int32"}, {"name": "StatefulPartitionedCall/lstm_model/dense/BiasAdd/ReadVariableOp", "shape": [93], "dtype": "float32"}, {"name": "unknown", "shape": [94, 128], "dtype": "float32"}, {"name": "StatefulPartitionedCall/lstm_model/embedding/embedding_lookup/axis", "shape": [], "dtype": "int32"}, {"name": "StatefulPartitionedCall/lstm_model/lstm/PartitionedCall/while/body/_52/while/split/split_dim", "shape": [], "dtype": "int32"}, {"name": "StatefulPartitionedCall/lstm_model/lstm/PartitionedCall/while/body/_52/while/TensorArrayV2Read/TensorListGetItem/element_shape", "shape": [2], "dtype": "int32"}, {"name": "StatefulPartitionedCall/lstm_model/lstm/PartitionedCall/while/body/_52/while/TensorArrayV2Read_1/TensorListGetItem/element_shape", "shape": [2], "dtype": "int32"}, {"name": "StatefulPartitionedCall/lstm_model/lstm/PartitionedCall/while/body/_52/while/add_2/y", "shape": [], "dtype": "int32"}, {"name": "StatefulPartitionedCall/lstm_model/lstm/PartitionedCall/while/body/_52/while/add_3/y", "shape": [], "dtype": "int32"}, {"name": "StatefulPartitionedCall/lstm_model/lstm_1/PartitionedCall/while/body/_122/while/split/split_dim", "shape": [], "dtype": "int32"}, {"name": "StatefulPartitionedCall/lstm_model/lstm_1/PartitionedCall/while/body/_122/while/TensorArrayV2Read/TensorListGetItem/element_shape", "shape": [2], "dtype": "int32"}, {"name": "StatefulPartitionedCall/lstm_model/lstm_1/PartitionedCall/while/body/_122/while/TensorArrayV2Read_1/TensorListGetItem/element_shape", "shape": [2], "dtype": "int32"}, {"name": "StatefulPartitionedCall/lstm_model/lstm_1/PartitionedCall/while/body/_122/while/add_2/y", "shape": [], "dtype": "int32"}, {"name": "StatefulPartitionedCall/lstm_model/lstm_1/PartitionedCall/while/body/_122/while/add_3/y", "shape": [], "dtype": "int32"}, {"name": "StatefulPartitionedCall/lstm_model/lstm_2/PartitionedCall/while/body/_192/while/split/split_dim", "shape": [], "dtype": "int32"}, {"name": "StatefulPartitionedCall/lstm_model/lstm_2/PartitionedCall/while/body/_192/while/TensorArrayV2Read/TensorListGetItem/element_shape", "shape": [2], "dtype": "int32"}, {"name": "StatefulPartitionedCall/lstm_model/lstm_2/PartitionedCall/while/body/_192/while/TensorArrayV2Read_1/TensorListGetItem/element_shape", "shape": [2], "dtype": "int32"}, {"name": "StatefulPartitionedCall/lstm_model/lstm_2/PartitionedCall/while/body/_192/while/add_2/y", "shape": [], "dtype": "int32"}, {"name": "StatefulPartitionedCall/lstm_model/lstm_2/PartitionedCall/while/body/_192/while/add_3/y", "shape": [], "dtype": "int32"}]}]}